experiments/compas/models/model_nn.pkl (torch, 45775 bytes, 7 tensors)

weight f4 [50, 7]
00000000: b0b8 bc3e 9787 3dbd a48e a33e 5a34 c8bc
00000010: 282a f1be 3e37 86be 4319 c3be 87e2 d03d
00000020: 10c5 c9be 9351 45be af15 4b3c a5de e63d
00000030: 1fbb d83e d60a cfbe dc87 8bbe 30d9 b83d
00000040: 335e 553e 1203 e93d 9efb c4bd 2233 0a3e
00000050: a1a4 023d f79e debc 7fd5 fcbd 72cd 933e
00000060: 8f0c 9cbe 1959 153e c236 81be 41f9 54be
00000070: 3ad2 bc3c 0e8b 1dbe 80d3 d8be 857b f33c
00000080: b08b 88be b62c 15be 3365 f1be ccb3 64bd
00000090: d798 a93e 6e09 babe a05e 46be dff8 9f3e
000000a0: 5f6a d4bc d7cf aabd 9a60 ba3d 4e72 443d
000000b0: a67b 203e c3e8 85be 30a4 6abc fff4 273e
000000c0: ba2e 5d3e a10f 99be c688 683e e49a 80be
000000d0: 60ce c7bc 0026 8fba 318d 2abe 5e38 2d3e
000000e0: 00a3 44bb dc2c e23e 38af 223e 5478 d0be
000000f0: d9d0 cf3e d460 f2bd bc44 e53e 0689 763e
00000100: 461c bebe 532c cebd 5808 2ebe de1b a4be
00000110: 0144 c33e f58f 243e 427a 343e 2347 6ab9
00000120: 5618 d03d 0c40 0a3d 59db 95be 37c3 193e
00000130: 0771 11bf e78e 943e fc61 c1be d738 45be
00000140: d3f3 0abc 3986 783d 613c 8dbe c67b 11bf
00000150: 4cac 8dbd a3cd bfbe 105f 523d 5804 89be
00000160: 6cb2 adbe 6938 1dbe aa63 4fbe fa23 35b9
00000170: 599f 1d3f 97de aebc 69ac 893d 0c1b c13e
00000180: 9dd4 80bc da57 ae3e f429 8a3d 4d9d ea3d
00000190: 2872 c5be bedf 53be 8597 673e 5d10 963d
000001a0: a145 dc3d e99a 9abe 98dd ac3d 600a 35bc
000001b0: d1c2 b5be 787a ad3d e02d 24bd e8d3 bbbe
000001c0: 08d6 f0bd d96f 9f3e 7c4a 9b3d 0b58 6cbe
000001d0: 53bd 47be 1298 30be 7891 48be cb13 723d
000001e0: ad1f ea3c 5d11 7d3e e847 0b3e 02fc d03e
000001f0: da6b 14be f442 0d3f d3cf aabe 3ac7 863d
00000200: 7cf0 17be bd9d 303e 81a2 6dbe cf5c 31be
00000210: 42de 023f 841f 9e3e 4439 043d 9ff6 d03d
00000220: 20cc 97be 0ac7 65bd 998f 2bbc 9f00 4cbe
00000230: b78a 33bc 90cc 2e3f 4e59 8a3e 7e67 173d
00000240: 8ebd 12be 8d5d b23e bfb7 0d3f e818 f73d
00000250: 50c6 2fbf 608b 8cbe 3d2f 363e eb84 08bf
00000260: 50df 413e 5ec1 61be 88a0 993e b3cb 8f3e
00000270: b3d3 733e 424e dc3d 08bf 07be 28d2 a9be
00000280: 419b 6cbe da81 debd 2a54 603e fb15 57bd
00000290: d047 763d 3252 b43e 23e8 ff3d cb05 ed3d
000002a0: 489f a8be 59ea 46be a06a ee3d 6d36 b4be
000002b0: 4b46 c0be d039 a83c 6094 1e3c 0f26 98be
000002c0: 48c5 b63d ea4b 293e 4ea0 96be 60de 65bd
000002d0: 7e56 653e 1f9e ac3e d958 87be 3104 50be
000002e0: 1832 5bbe 9f05 45be 3ee6 7abe 317f 943e
000002f0: 30e3 9cbc 122f 93be 5021 89be 8c86 a4be
00000300: 02dc b5be a001 b33c d84e 253d 8a6f 5e3e
00000310: 32fa 873e 4df3 e83e 24c4 873e 1dc7 3fbe
00000320: f13e 3dbe 4641 1fbd 1f14 873d d87d eabc
00000330: 1f71 fb3a 89b9 59be 865d 9fbe ff34 1fbe
00000340: a9fb 733d 4588 3a3e 1c8d adbe d4cd adbe
00000350: e03a b1bc 3657 14be a9bf 1dbe 6926 bbbe
00000360: 62d9 2d3e f056 82bd d3a3 983e 378c 78be
00000370: 3fd6 afbe c0b5 a0bb e4c9 b73d c29a 613e
00000380: b00e 37bd cda7 943e 8f2d 53be 15ed a3be
00000390: 4af0 3ebe 9ba2 1abe 3a15 063e 092b 963e
000003a0: 4319 aa3d 3110 5cbe 8c1e c6bd f9ef 5dbe
000003b0: 3577 7d3e 796a abbe 85d9 0abe 0e49 5ebe
000003c0: 3512 9dbe 8739 943e 134f 01bf dee0 fdbe
000003d0: 47aa 9bbe 4eb5 88be d2a6 28be da83 5f3e
000003e0: 0061 df3a 98d5 2fbd 44a4 b3be 00c8 fcbd
000003f0: f5d9 11be d557 863e 0aa8 073e 41d2 23bd
0.36859655 -0.046271887 0.31944764 -0.024439026 -0.47102475 -0.2621402 -0.3810521 0.10199457
-0.3940816 -0.192694 0.0123953065 0.11272935 0.42330262 -0.40437955 -0.2725209 0.090258
0.20836715 0.11377539 -0.09618305 0.13496068 0.031895284 -0.02717541 -0.12345409 0.2886768
-0.3047833 0.1458477 -0.2523709 -0.20798208 0.023049463 -0.15385076 -0.42348862 0.029721985
-0.26669073 -0.14567837 -0.4714752 -0.05583553 0.3312442 -0.3633532 -0.19372034 0.3124456
-0.025929628 -0.083404236 0.091004565 0.047960572 0.15672168 -0.26154146 -0.014321372 0.16402052
0.21599856 -0.29894736 0.22708425 -0.25118172 -0.0243904 -0.0010921359 -0.16655423 0.16916034
-0.0030004382 0.4417485 0.15887153 -0.40716803 0.40589026 -0.11834875 0.44779003 0.24075708
-0.37130946 -0.10067048 -0.1699537 -0.3205251 0.3813782 0.1607054 0.17624763 -0.0002234248
0.10160892 0.033752486 -0.2926891 0.15015875 -0.5681309 0.29015276 -0.3777007 -0.19259964
-0.008480984 0.06067488 -0.27585128 -0.5682949 -0.06917629 -0.37461576 0.05136019 -0.26761127
-0.33925188 -0.1535355 -0.20252863 -0.00017274907 0.6157127 -0.021346373 0.06722338 0.37715948
-0.015726382 0.340514 0.06746283 0.11455784 -0.38563657 -0.2069082 0.22616394 0.0732734
0.10755468 -0.30196312 0.08440703 -0.011049837 -0.35500196 0.08470625 -0.040082812 -0.3668511
-0.11759573 0.3114002 0.07582566 -0.2308046 -0.19505815 -0.1724551 -0.19586742 0.059100907
0.028579557 0.24713655 0.13601649 0.40817267 -0.14494267 0.5518029 -0.33361682 0.06580968
-0.14837831 0.17247672 -0.23206522 -0.1732056 0.5112039 0.3088342 0.032281175 0.10203289
-0.29647923 -0.05609802 -0.010471248 -0.19922112 -0.010958365 0.6828089 0.2702126 0.036963932
-0.14330122 0.34837 0.553585 0.12065297 -0.68661976 -0.27450085 0.17791457 -0.53327817
0.18932843 -0.2204642 0.30005288 0.28085098 0.23811226 0.10757114 -0.13256466 -0.3316815
-0.231061 -0.10864611 0.21907106 -0.052511197 0.06012708 0.3521896 0.124954484 0.115733705
-0.32934022 -0.19425334 0.11641431 -0.35197774 -0.3755363 0.02053538 0.00967893 -0.29716536
0.08924347 0.16532865 -0.29419178 -0.056120276 0.22396275 0.33714387 -0.26434973 -0.20314099
-0.21405828 -0.19240426 -0.24501893 0.2900329 -0.0191513 -0.2874685 -0.26783228 -0.321339
-0.35519415 0.02185136 0.040358394 0.21722236 0.2655807 0.45498124 0.2651683 -0.187283
-0.18481041 -0.03888061 0.06595635 -0.02862446 0.0019183493 -0.21262182 -0.3112604 -0.1554756
0.059566174 0.18216045 -0.3389672 -0.33946097 -0.02163452 -0.14486393 -0.15405144 -0.36552742
0.16977456 -0.06364238 0.29812488 -0.24272238 -0.34343144 -0.004904479 0.089740545 0.22031692
-0.04469174 0.29034272 -0.20622848 -0.32016817 -0.1864635 -0.15101092 0.13094035 0.29329708
0.083055995 -0.21490552 -0.09673795 -0.21673574 0.24752505 -0.3347967 -0.1355954 -0.21707556
-0.30677953 0.2895014 -0.5051128 -0.49585623 -0.3040335 -0.26700824 -0.16469887 0.21827641
0.0017042458 -0.04292831 -0.35086262 -0.123428345 -0.142433 0.26238886 0.13247696 -0.039995436

bias f4 [50]
00000000: 9b5b debe dbcb 823d a015 7bbe 7282 bc3e
00000010: 1577 8ebe 550e a83e 573d 033e 1af8 463e
00000020: 9a68 a1be dda6 ac3e df97 acbe 7e67 b03d
00000030: 80d1 97bd fdf6 163e 313c 823e d065 2cbd
00000040: 2438 99be eb12 51be 77ed c63e ab9b 503d
00000050: 6fff d3bd 4432 263e bc11 523e 571f bf3e
00000060: 40ac 9c3d 16af 3a3e 005f 98be b948 2bbe
00000070: 73dc 813d 33c1 1dbc d49e e0bd 808b ccbd
00000080: 8dd9 0ebe 202d 823e b7a5 97be 2bf0 803e
00000090: 1468 afbe 7f9d 003e bf45 91be 633b 073e
000000a0: 021d 3abe 5463 ae3e dc46 b3be d777 a93e
000000b0: e5f8 9a3e 2aa0 0e3e 8eab cd3e 4ee6 a4be
000000c0: 561b 7c3c aea4 96be
-0.43429264 0.063865386 -0.24519968 0.36818272 -0.27825227 0.32823434 0.12816368 0.1943058
-0.31525117 0.33721057 -0.33709618 0.086134896 -0.07413006 0.14742656 0.25436547 -0.042089283
-0.29925644 -0.20417373 0.38853046 0.050929707 -0.103514545 0.16230112 0.20514578 0.37328598
0.076500416 0.18230852 -0.2975998 -0.1672696 0.063408755 -0.009628582 -0.10967794 -0.09987545
-0.13950177 0.25425053 -0.29618618 0.25183234 -0.34259093 0.1256008 -0.28373525 0.13206248
-0.18175128 0.34060156 -0.35015 0.33099243 0.30268016 0.13928285 0.40169948 -0.3220696
0.015387377 -0.29422516

weight f4 [100, 50]
00000000: f989 be3d cf3f 183d 6c9e 733d 2066 ecbc
00000010: 2eb6 ab3d 1abf e23d bf65 d7bd 51b1 043e
00000020: f9fb 0dbe ec49 bcbc bd07 2cbd 30b0 25bc
00000030: cba0 0f3e a58e d2bd ff53 af3a 6005 f33b
00000040: e01d 4d3d a96e 44bd e102 b03d 5893 fa3d
00000050: 6984 eebd f52c 54bd 0c1f e0bd 9233 8f3d
00000060: 512e 06be c6da 41bd 17f3 86bd 1082 7d3c
00000070: bdda 67bd 8c1a de3d 0401 2f3d e491 003d
00000080: 089d ae3d 5cf1 cebb d036 893c 1fbc 87bd
00000090: 5800 743d d761 6bbd f95e cf3d 611d 89bd
000000a0: 34c3 bebc 80e9 fdbd 11ad a53d 140c b1bd
000000b0: 9461 eb3d 4896 2e3d 1f37 c1bc 2142 8bbd
000000c0: 5786 1bbd a348 cebd 5011 2f3d 65b1 07be
000000d0: cca3 7bbd 14c9 c7bd 6c4b 4e3d 5c38 393d
000000e0: d5e9 013e f098 b0bc b6ce ee3d 15b9 c6bd
000000f0: ae48 bbbd 969f d0bd c07c 783b df22 03be
00000100: 5256 c43d 669a e2bd d83b 763d 723c 7ebd
00000110: 0023 2b3b 0cbd 1dbd 84ae 893d b15d 093e
00000120: 38c1 0ebe 1252 f8bd 2016 40bc 80d3 a23b
00000130: 2f30 0a3e b496 7f3d 80c1 a0ba 662c f9bd
00000140: 00bd ff3c 5e6a 5fbd 30e3 5d3d d8d5 4dbd
00000150: a075 f8bb 34c6 c93d b925 023e 85d8 febd
00000160: 928d afbd e0c4 5ebd 80ad 82bb 3a1c c93d
00000170: 3c0a b03d b00b 42bc ac59 9ebd 1304 013e
00000180: 2a3e 4ebd 2d7e 81bd 2268 833d 4aa5 a03d
00000190: 9ca3 2e3d a030 0abd 4e81 64bd 10dd 28bd
000001a0: 747b d43d 9a90 a03d d063 7c3d 50f3 5dbc
000001b0: 2a95 8b3d e8c4 973c dc16 5fbd fa04 62bd
000001c0: 0885 7f3d 0001 303a baab de3d a09c c33d
000001d0: 6c73 a43d eaf1 ddbd 2efc 04be e25e 803d
000001e0: 3042 14bc 2a52 0fbe 403f 7bbd 1702 8abd
000001f0: 37a5 b9bd f85c ed3c 1827 3e3d 93b0 abbd
00000200: 1da4 f7bd 14ab bd3d 7444 a23d 2096 323d
00000210: 586f 4e3d 38b0 b5bc d49d 8ebc ced2 0dbd
00000220: a60c 8dbd 0e3f d1bd 3051 b23d 6cbf b1bc
00000230: 000d ef3b 6d88 f0bd 40ab ab3b 00b8 3cba
00000240: 12f8 ccbd 2076 f6bd ae4c ebbd 82a2 09be
00000250: 1e5f e83d 92ad 8bbd 797f 25bd 1354 0f3e
00000260: 2045 ee3c 924b 443a dc6d 3cbd ae81 6b3c
00000270: a8cb c6bb 1a4f 55bd a55b cdbd 5412 873d
00000280: e205 a5bd 5471 eb3d b874 053d d603 1ebe
00000290: a3b4 8e3d ec95 543d 7ca1 5d3d ab99 94bd
000002a0: 7d6f b03d 8073 ebba 01f0 4b3d 6d04 70bc
000002b0: 86e5 63bd 16c8 363d 4843 963c d0ce 423d
000002c0: 9796 92bd b054 05bc 631f fe3d 5b5b 38bd
000002d0: 4490 883d 9699 0cbe 7a2b 9b3d b932 dd3d
000002e0: a3c8 1ebd 344c e3bc 245e 5e3d f9a7 b13c
000002f0: 80c3 943c 3b67 273d d696 e3bd a2b1 13be
00000300: 767d c03d 1ecc 0abc ae8c c33d 0a8a 953d
00000310: c453 e5bd 5fa0 01be 91e3 393e a219 42bd
00000320: f903 9f3d 11f9 66bd 5609 ffbc 817f ed3c
00000330: 69ab b23c 1bcb eb3d ca53 8dbc e4d7 0e3d
00000340: 0d7d d53c 89dd 20be 2813 d63c 2fd0 ca3d
00000350: d85c abbc 0fbc 84bb 2283 ae3d c059 5c3d
00000360: 7c24 21bd ae88 cf3d 959f a7bd f1f7 aa3d
00000370: 8f30 ba3d 0d49 d83d a0d4 043d bdda a1bd
00000380: 7800 da3d 0052 17bc a556 e7bd 7669 ac3d
00000390: 170e 24bb ac1a d93d 963f 16bd b090 4d3c
000003a0: 1809 193d eecc c4bd f792 103d e2a9 c43d
000003b0: 5b81 b53d 4745 333d 6779 8d3d 80f8 2ebd
000003c0: 3247 47bd 6ec2 553c 271b 083e 305e 91bd
000003d0: 274c babd 50e0 8a3d dba3 21bc 8131 d0bd
000003e0: c2b5 96bd cf01 983d 203e 103d 9697 f63d
000003f0: a92b bcbd 4b2c 023e 0092 e7bc a009 99bb
0.0930366 0.037170228 0.059477255 -0.02885729 0.083843574 0.11071606 -0.105174534 0.12958266
-0.13865651 -0.022984467 -0.041999567 -0.010112807 0.14026181 -0.102811135 0.0013376473 0.0074164122
0.05007732 -0.047957096 0.08594299 0.12235135 -0.11646349 -0.051800687 -0.10943422 0.06992258
-0.13103606 -0.04732778 -0.065893345 0.015472904 -0.05660509 0.10844907 0.042725578 0.031389132
0.08526045 -0.0063153934 0.01674977 -0.06627678 0.05957064 -0.057466354 0.101255365 -0.06695057
-0.02328644 -0.12398052 0.080896504 -0.08644882 0.11493221 0.042623788 -0.023585854 -0.067997225
-0.037969913 -0.10072448 0.04274112 -0.13251264 -0.061435506 -0.097551495 0.050364897 0.045219764
0.12686856 -0.021557301 0.11660521 -0.0970327 -0.09144722 -0.101866886 0.0037916154 -0.12806271
0.09586777 -0.110646054 0.060115665 -0.062069364 0.002611339 -0.038510367 0.06722739 0.13414647
-0.13940895 -0.12125029 -0.011724025 0.0049690604 0.13494943 0.06239958 -0.0012264699 -0.121666715
0.031218052 -0.0545448 0.05417174 -0.050252765 -0.0075823814 0.09852257 0.12709703 -0.124436416
-0.08571924 -0.054386973 -0.003987968 0.09819837 0.08595702 -0.011843607 -0.07731947 0.1259921
-0.050352253 -0.06322894 0.06416346 0.078440264 0.0426365 -0.03373778 -0.055787377 -0.041226447
0.10375109 0.078400806 0.061618626 -0.01354678 0.0681556 0.01852651 -0.05446516 -0.055180527
0.062382728 0.0006714016 0.10872598 0.09551358 0.080298275 -0.10837157 -0.12986824 0.062680975
-0.009048983 -0.13996187 -0.061339617 -0.0673868 -0.09064715 0.028974995 0.046424 -0.08383288
-0.12091849 0.09261146 0.07923213 0.0436002 0.050399154 -0.022178754 -0.017409243 -0.034624867
-0.06887178 -0.10217105 0.087068915 -0.021697722 0.007295251 -0.11744771 0.0052389205 -0.0007199049
-0.10008253 -0.12034249 -0.11489235 -0.13440898 0.11346267 -0.06820215 -0.04040477 0.13996916
0.029085696 0.00074880675 -0.046003208 0.01437418 -0.006066758 -0.05207739 -0.100272454 0.06595293
-0.08057763 0.11496225 0.032582015 -0.15431151 0.069680475 0.05190079 0.05410908 -0.07255872
0.08615015 -0.0017963499 0.049789432 -0.014649493 -0.055638812 0.04462441 0.01834263 0.047560513
-0.07157629 -0.008137867 0.1240833 -0.045009 0.066681415 -0.13730463 0.07576652 0.1080069
-0.03876556 -0.027746297 0.054289 0.02168654 0.018159628 0.040869933 -0.11112754 -0.1442323
0.0939893 -0.008471517 0.09548317 0.073017195 -0.11197618 -0.12658833 0.18153216 -0.047387727
0.077644296 -0.056389872 -0.031132381 0.028991463 0.02181025 0.11513349 -0.017251868 0.034873858
0.026060605 -0.15709509 0.026132181 0.09902989 -0.020918295 -0.0040507386 0.08521105 0.05379653
-0.039341435 0.101334915 -0.08184735 0.08348072 0.09091293 0.10560808 0.032429338 -0.07903049
0.10644621 -0.009235859 -0.11295823 0.084185526 -0.0025032812 0.106007904 -0.036681734 0.012546703
0.037362188 -0.096094 0.035296407 0.09602715 0.08862563 0.04376724 0.06907921 -0.042717457
-0.04865188 0.013046844 0.13291608 -0.07098043 -0.09096556 0.067810655 -0.009865726 -0.10165692
-0.07358886 0.0742222 0.035215497 0.120406315 -0.09188015 0.12712209 -0.02826786 -0.004670337

bias f4 [100]
00000000: 154e 9e3d 2650 d03d 0e4b c9bd 18ae 193c
00000010: ba30 59be 284d 20bd 6566 313d f0f4 bcbd
00000020: 4192 97bd 50bc eabd 719c 8dbd 546f 503d
00000030: 1c12 4fbd de05 503e 56e3 03be c329 903c
00000040: 545e c7bd 9bf9 51bd 0729 0c3c f1c4 f53b
00000050: d10b cf3c 4bbc efbd 9bb5 86bd 725f 7d3c
00000060: 7e17 afbd 6143 aabd 0061 3a3c 00ef 90bd
00000070: 08b1 9bbb fc38 523e 707b 2abc 40fd 9dbd
00000080: c8af 463d a569 183d 35ae d23b 9bb1 563d
00000090: dd96 7f3d 4832 153d d28b 9d3d a96e f53d
000000a0: fcea fa3b d106 28bd 8591 acbd e280 40bd
000000b0: aa2f d0bc fb6e 82bd 5dd2 93bd 105d 81bc
000000c0: 465c 29be 6335 d6bb 80d6 4e3c 8bfc a4bd
000000d0: 6968 f5bc cecf d9bd f46a c7bd a92c aa3c
000000e0: 2194 09be 088b a53d 0660 79bd bdd8 29be
000000f0: 46b8 483d a041 afbd 4a36 813c 48ea 843d
00000100: 7d05 c93d fd6c 093e 5ea9 ce3d 4a6e 74bd
00000110: fbdd 503d a7db 983d d543 cdbd dc05 2a3e
00000120: 3772 603c a5e7 adbd 5c86 d8bd 3753 00bd
00000130: d4fa 5c3d 7be4 ea3d 46b1 aebc a8c0 e5bd
00000140: 87e4 033e 38e2 3b3e 7fdc 8bbd 5299 61bd
00000150: ec89 c13d 7dad df3c 006e 18bc 70fc 1fbd
00000160: b2b2 acb9 9a31 9e3d 7ea5 c13d 64ba f6bc
00000170: 9444 9e3c 7dc1 30be 45f6 843d 97ce 16be
00000180: 9223 d53d ef4a b83c 0d08 aebd 92f7 203e
0.07729737 0.10171537 -0.09828769 0.009379886 -0.21209994 -0.039136082 0.04331054 -0.092264056
-0.074009426 -0.11461699 -0.069146045 0.05088742 -0.05055438 0.20314738 -0.1287969 0.017598039
-0.097347885 -0.051263433 0.008554704 0.007500284 0.02527419 -0.11705836 -0.06577607 0.0154646505
-0.08549403 -0.08313633 0.011375666 -0.07076836 -0.0047513284 0.2052955 -0.010405406 -0.07714319
0.04850748 0.037210125 0.0064294585 0.05241547 0.062399734 0.036424905 0.07692684 0.119839974
0.007657407 -0.041022126 -0.08426193 -0.046997912 -0.025413353 -0.06368824 -0.07217858 -0.015791446
-0.16539106 -0.006537126 0.012624383 -0.08055981 -0.029957013 -0.10635339 -0.097371966 0.020773249
-0.13435413 0.08083159 -0.06088259 -0.16586585 0.04900386 -0.08557439 0.015772957 0.06489998
0.098155 0.13420482 0.10090898 -0.059675492 0.050992947 0.0746377 -0.100227036 0.16603798
0.013699106 -0.08491448 -0.10572502 -0.03132936 0.053950146 0.114693604 -0.021324765 -0.11218387
0.12880145 0.18348014 -0.06829166 -0.05507786 0.09450135 0.027304405 -0.00930357 -0.039059103
-0.00032939535 0.077243045 0.09455393 -0.030118175 0.01931981 -0.1726131 0.06492285 -0.14727245
0.10407175 0.022496669 -0.08497629 0.1571944

weight f4 [50, 100]
00000000: 00e2 37bc 4203 223d fa00 013d b254 4b3d
00000010: 3f5b 463d 7712 b9bd 4f84 fc3c d050 a8bd
00000020: c646 263d d522 c0bd 82f1 003d 9ebe a3bd
00000030: 42c2 6e3d c222 9d3d f0e5 45bd a3e5 38bd
00000040: 3fbe bdbd 7518 90bd 1db9 b63d 6905 983d
00000050: 123c a4bd 27fd 57bd e4aa 6fbd 1490 8fbd
00000060: a750 41bd e1cd eebd ced5 6b3d 6f19 c4bd
00000070: a9b4 123c 402f b43a a942 b03d 6282 dbbc
00000080: c01f 27bb 9f10 c5bd 3a42 353d e881 5abc
00000090: bec0 bfbd a9be ca3d 4684 783d 3d47 cb3d
000000a0: f2f4 8dbd 2096 e6bb c5ef 03bd 9e79 c6bd
000000b0: 0b28 edbd 464d 1c3d 639f 40bb c298 053d
000000c0: fc1f 8ebd 08b1 b93c cd59 a23d e122 413d
000000d0: fa0d 47bd d8b9 f1bc 036e b0bc f0cb 26bd
000000e0: b156 913d bb88 8c3d decf 1b3d 1f46 bdbd
000000f0: d6bc 9cbd d23b 143d 0657 febc 5270 4d3d
00000100: 5cc9 60bc bdbd 7bbd 186d 833c 961d 493d
00000110: c0b2 75bc 6939 d6bd 7875 9cbd 6bbb 3cbd
00000120: 3076 a2bd 41d3 35bd eb7a 92bc 27cc 8b3d
00000130: c133 193d 0d43 a03d 607f f83b 8835 c33c
00000140: 0998 943d 3df4 80bc bfb5 a53d 9420 92bc
00000150: a8ea 56bc 4223 93bd aa08 c1bd 05d1 933d
00000160: d41d 8cbc 5325 3fbd 5ef2 543d 7083 96bd
00000170: 9921 9a3d cbef 123c 0b14 b0bd f40e edbc
00000180: 60ba 853b efd8 853d 25bf 943d dc8e 18bd
00000190: 3f29 d83c 341c 81bd 42b5 acbd 420b 1ebd
000001a0: 59e2 c93d e6f0 a6bd 95ff bf3d 424a 7a3d
000001b0: d111 443d 0a90 abbd b512 d83c 4a9b b33b
000001c0: e765 1c3d dced 18bd 7bc6 d5bc aa7d d03d
000001d0: ae37 ab3d 9e59 0f3c 93f1 303d e4f9 b13d
000001e0: 5ce2 f03d a326 fbbc cb56 5cbd d03b b1bd
000001f0: ea6c 91bd f1d6 143d b896 abbd a4a5 733d
00000200: e8c9 093d a173 bfbc 22e7 023d a05c f83d
00000210: 9f1a c83d f306 6a3d 70e1 d5bd 4524 bdbd
00000220: 58b5 95bd 965b 6bbd 8e5e 793d a4f7 163e
00000230: 4d75 9ebd b484 b2bd 9b7d 533d 1f1c 033c
00000240: 541c ef3b f8d0 c73c 2390 b1bd 18db 48bc
00000250: b5d3 de3c 89a0 7c3d d8b7 81bd 84d9 813d
00000260: 0626 8f3d c2bb b0bc 3653 49bb acae db3a
00000270: 2441 fe3a 6892 9c3c 30a8 6fbd e7d5 c1bc
00000280: 178e 9abd 7293 95bd 70cd e9bd 678b 953d
00000290: 4cf5 983d 4746 85bd 4811 a7bd 4184 b73d
000002a0: bb54 d33d 576e f1bc 59be d63d db47 643c
000002b0: 25f1 0a3d 28c2 6dbd 5afd ec3c 3e11 b53d
000002c0: b3c8 903d 3082 dc3d c8d1 9cbc 861d a6bd
000002d0: 94fd 81bc edec 5cbc a694 afbd 90a5 a7bd
000002e0: 3fa3 bbbd 169c a7bc 9884 6d3c 53bb 113d
000002f0: 7f35 773c 6d12 c63c f8a3 babc b297 a6bd
00000300: b10a b63d 26fb c03d 50cb f03c 33b7 0c3d
00000310: 0cef 8f3c 9367 103d 8265 563d bbb2 7abc
00000320: e254 d6bd fd0e a43d f8fd b43c 084e 0ebc
00000330: 5f77 893d fd74 93bd b2e8 9ebb a018 a3bd
00000340: 2ebd 6b3d 1cbd e43c 17c4 9dbd 90ac afbd
00000350: e665 2a3d 323c 38bd e223 3e3c 104a 8bbd
00000360: 21a5 2abd 15f9 703c ef51 bf3c db3f 783b
00000370: 28de 973d b71c acbc 63d9 a0bd 6171 b7bd
00000380: d038 18bd 2dda 8bbd f790 7fbd 6822 14bc
00000390: 19d6 373b ba9b 7bbd 767f 383d 5703 d8bb
000003a0: 50c4 003c 912d 94bc 6298 493d 532d 8e3d
000003b0: 02a0 72bd c942 49bd d68c 4a3d 0092 de3d
000003c0: ee36 15be d91e 8d3d da7d ed3c d057 c4bd
000003d0: 7acf 8ebd 60b2 d53b 2f03 76bd 2a89 3abd
000003e0: cf6a 09bd b004 103d cd09 5abd b36c fc3c
000003f0: d05b be3b 7f46 09bd d6b1 b3bd 7e0f 823d
-0.011223316 0.03955389 0.031495072 0.04964132 0.048426863 -0.09036725 0.030824808 -0.08218539
0.04059484 -0.09381644 0.03148032 -0.07995342 0.058290727 0.07672645 -0.04831499 -0.045140874
-0.09264802 -0.07035915 0.08922026 0.07422907 -0.0801927 -0.05273166 -0.058512583 -0.070099026
-0.047196057 -0.11660362 0.057576947 -0.095751636 0.008954206 0.0013746992 0.086064644 -0.02679557
-0.0025501102 -0.09622311 0.04425261 -0.013336636 -0.093629345 0.09899647 0.06067302 0.09925697
-0.06931485 -0.0070369393 -0.032211084 -0.096911654 -0.11579903 0.03815963 -0.0029391877 0.032616384
-0.06939694 0.022667423 0.079272844 0.047152404 -0.048597313 -0.029507563 -0.021536833 -0.040721834
0.07096613 0.06862017 0.038040034 -0.0924189 -0.07653205 0.03618986 -0.031047355 0.050155945
-0.013719883 -0.061460245 0.01604323 0.04910048 -0.014996231 -0.10460169 -0.07639593 -0.046077173
-0.07932699 -0.04439092 -0.017880877 0.06826048 0.037402872 0.07825289 0.0075835437 0.023829237
0.07255561 -0.015741462 0.08091306 -0.0178378 -0.01311747 -0.07184459 -0.09425481 0.07217602
-0.017104067 -0.046666455 0.05198895 -0.073492885 0.075259395 0.008968304 -0.08597573 -0.028937794
0.0040810555 0.065355174 0.072630204 -0.037245616 0.026386855 -0.063042074 -0.0843301 -0.038584955
0.098576255 -0.081514165 0.0937492 0.061105974 0.047868554 -0.08377083 0.026376108 0.0054811584
0.03818312 -0.037336215 -0.02609562 0.101802185 0.083602294 0.008749394 0.043199133 0.08690241
0.117619246 -0.030658072 -0.05379371 -0.086539865 -0.07100852 0.036337797 -0.08378357 0.05948414
0.03363982 -0.023370566 0.031958707 0.12127042 0.097707026 0.057135534 -0.104433894 -0.092354335
-0.07309979 -0.05746039 0.06088119 0.14742905 -0.07737217 -0.08716717 0.05163346 0.00800231
0.007297078 0.024391636 -0.0867007 -0.012259267 0.02720056 0.061676536 -0.063338935 0.06340316
0.06989674 -0.021573905 -0.0030719764 0.001676043 0.0019398076 0.01911278 -0.058510005 -0.023661567
-0.07546633 -0.073035136 -0.11416137 0.073019795 0.07468662 -0.06507545 -0.08157593 0.08960772
0.103188954 -0.02947156 0.10485525 0.013933147 0.03392138 -0.05804649 0.028929401 0.08841179
0.0706953 0.10767019 -0.019143 -0.081111 -0.015867986 -0.013484222 -0.08573274 -0.081858754
-0.09161996 -0.02046017 0.014496945 0.035579037 0.015088438 0.024178708 -0.022783265 -0.08134402
0.08888758 0.09422903 0.029393822 0.0343544 0.017570041 0.035255026 0.0523429 -0.015301402
-0.10465409 0.08010671 0.022093758 -0.008685596 0.06712221 -0.07200048 -0.004849517 -0.07963681
0.057553463 0.027922206 -0.07703417 -0.085778356 0.041601084 -0.04497928 0.011605235 -0.06801236
-0.041661385 0.014707823 0.023354499 0.0037879858 0.0741542 -0.021009786 -0.07853963 -0.08957172
-0.037163556 -0.06828723 -0.06239411 -0.009041406 0.0028051196 -0.06142781 0.04504343 -0.006592195
0.007859305 -0.018088134 0.04921759 0.06942239 -0.059234627 -0.049135957 0.049450718 0.10867691
-0.14571735 0.06890649 0.028990675 -0.095870614 -0.06973167 0.006521508 -0.06006163 -0.045540966
-0.033549126 0.03516072 -0.053232003 0.03081355 0.0058092847 -0.033514496 -0.08774154 0.06350611

bias f4 [50]
00000000: 6b15 b7bd 078c 0abe 74b0 d63d ace9 c5bd
00000010: e5ed 833d 4851 a63c 1881 d1bd 6ac9 f23c
00000020: 91c6 0a3e b73d 60bd 15ee ea3d e956 a83d
00000030: 164d 073e a1df 063b 229e aebc 7b09 623d
00000040: 4f10 0bbe b267 ae3c 552f 4d3d 0951 a8bd
00000050: 6c79 e93b 69d4 643d 4a19 0b3d fc6c 29bd
00000060: 721e b4bb 4453 0bbc 6a6f e0bd 20f4 8a3c
00000070: 7667 3fbd 036f e0bd 5aa5 0abe 9039 6cbc
00000080: d982 42bd a37a a93d c485 c83c 7080 b53d
00000090: 6128 b13c 263e fb3d df74 b1bd 30c1 b23b
000000a0: 53f2 893d 7337 373d b5ce 9d3d d9c0 13bd
000000b0: 013a b83d f547 083e 7302 893d 77eb 8c3d
000000c0: 40a8 21bd e50d e2bd
-0.08939632 -0.13529979 0.104828745 -0.0966371 0.06441859 0.02030243 -0.10229701 0.029637057
0.1355231 -0.054746356 0.11471192 0.08219702 0.13213 0.002058007 -0.021315638 0.055184823
-0.1358044 0.02128968 0.050093967 -0.08218581 0.0071250703 0.055866633 0.033959664 -0.0413637
-0.0054967934 -0.008503739 -0.109587505 0.016962111 -0.046729527 -0.10958674 -0.13539639 -0.014418021
-0.047488067 0.08275344 0.024477847 0.08862388 0.0216257 0.12267713 -0.086648695 0.0054551587
0.06735673 0.044730615 0.07705442 -0.036072586 0.08995438 0.133087 0.0668992 0.06880849
-0.039467096 -0.110378064

weight f4 [1, 50]
00000000: bdd6 eabc 2dd1 c63d 0b47 8c3d 7c00 db3d
00000010: 30a9 e0bc 0078 e9b9 c68c 4d3c c816 9d3d
00000020: fb16 12bd d0f2 f73a 2f2c f5bd f3a8 c83d
00000030: ab30 c93d 017c ebba 5966 e03d d6da 5a3d
00000040: f75d ac3d f818 97bd 61f6 cabd 99f0 9b3d
00000050: 722e a23d 8536 abbd 849b 473d 7901 6fbd
00000060: 2211 5b3c 8bbc 88bd 34f0 f63c 785a efbd
00000070: 132b 173d 5b6a 173c 8a83 b63d 611b 0abe
00000080: 164e 0a3d f7e6 f0bd b29f 45bc b4cc f83d
00000090: 7cae e93c b184 d4bd bf5c db3d f9b2 eb3d
000000a0: 86ad c13d 632b 193d d809 a8bd c881 debd
000000b0: a0c7 8ebc 99a6 f8bc 222c 8dbd 4dc2 84bd
000000c0: 5357 9abd 3be3 4bbd
-0.028666848 0.09707866 0.06849488 0.10693452 -0.027424425 -0.0004453063 0.01254577 0.07670361
-0.035666447 0.0018916968 -0.11971318 0.097978495 0.09823736 -0.0017966033 0.10957021 0.053431354
0.0841636 -0.07377809 -0.09910274 0.0761425 0.07919015 -0.08360008 0.048732296 -0.058351014
0.013370784 -0.06676587 0.030143835 -0.116871774 0.036906313 0.009241666 0.08911808 -0.13487007
0.033765875 -0.11762803 -0.012062 0.12148419 0.028525583 -0.103768714 0.10711049 0.11508746
0.09456925 0.037394892 -0.082050025 -0.108645976 -0.017429173 -0.030352877 -0.06893183 -0.064823724
-0.07536187 -0.04977725
