experiments/tabular/german/models/model_nn_logistic.pkl (torch, 1703 bytes, 1 tensors)

weight f4 [1, 20]
0	0xbfb995af	-1.4498805
1	0xbfab62f8	-1.3389578
2	0xbf437008	-0.7634282
3	0x3eca6328	0.39528775
4	0xc0116b62	-2.2721791
5	0x3f062efa	0.5241543
6	0x3f583de0	0.84469414
7	0xbf7144eb	-0.94245785
8	0x3f552784	0.8326342
9	0x3e1c8151	0.15283705
10	0xbe9b24ce	-0.30301517
11	0x3ea6a35b	0.32546505
12	0x3f1865a9	0.5953012
13	0x3f08d5a7	0.5345101
14	0x3eedc8cd	0.4644226
15	0xbf002cb0	-0.5006819
16	0xbe49ccbc	-0.19707006
17	0xbe6668b9	-0.22500886
18	0x3f157b63	0.583914
19	0x3f5e5275	0.8684457
