experiments/tabular/german/models/model_nn.pkl (torch, 48463 bytes, 7 tensors)

weight f4 [50, 20]
00000000: de5c 9c3e 02ea 5c3e 7ac8 783e 9bf1 74bd
00000010: 84d9 adbd 246d bebd 534f 82bd 69f5 363d
00000020: 38a6 a0bd 9208 bdbd 0d97 17bb 7353 103e
00000030: c2b0 463e 102b a5bd b1ab 03be 477e 393d
00000040: ebc5 dd3d 504b a13d f4b6 e6bd 89d4 c8bc
00000050: 887a 35bd 9224 2bbd 9401 55be 8666 323e
00000060: 2b97 edbd 2e87 a33d 9ec0 25be 5873 47be
00000070: d492 e53c 0ec8 ca3d 1f22 7fbe e2fd 08bc
00000080: e35b 24be 4227 77bc cc53 c0bd 491d a23d
00000090: 16e7 603e f937 84be affb ccbd 472e 8b3e
000000a0: fba3 ab3c 2452 b7bb 0e9c fe3d 60bb 8bbd
000000b0: a9ed 053e 6a4a eabd bfed c0bd dd2e 543e
000000c0: 9b25 3c3c 1c38 babd 7ba2 1e3e 872e 0fbe
000000d0: 124f abbc cf8d b23a 91aa cabd 18e8 d23d
000000e0: beaf 38bd fc41 4c3e 9a87 923d 301b 81be
000000f0: d98c 813e c936 6f3c 0df4 de3d f510 263e
00000100: 895a 34bd dddc 903c ba4c c4bd 1ce1 f5bd
00000110: 2127 503e 5711 403e d034 033e 3f87 ff3d
00000120: 3dd5 023e bab4 d63c 73c4 cebd ed1e 1d3e
00000130: 3b2f 4dbe d9b6 483e 65e2 1ebc d534 1bbe
00000140: b2e3 613c 40a1 bc3d 8afb c7bd 87f9 00be
00000150: 83e0 6b3d 3ff7 25be 1d3c aa3d d6ad 9bbe
00000160: 1c33 96be 994f 01bd 8b37 d4bd 077e 983c
00000170: cf38 003e c146 19bd 62bc 773d eb9c 213e
00000180: 274d 263e 0ddc 1bbe 8189 1d3e 51f9 943e
00000190: 94ba 32be 3706 9bbd e477 6d3e cb0b b4bd
000001a0: afd5 823e 5561 b9bd e34f f03c e7c3 d7bd
000001b0: 5004 a8be 1f41 52bb 4aa2 8bbd 3ff2 39be
000001c0: bcba 6bbd 088c 4d3e 7d0c ed3d 0dbb 9bbd
000001d0: 74bf eebc 29df e6bd b315 a5bc 6d14 683e
000001e0: 3094 2bbe d0d5 d13d a6d9 ef3d b510 2b3e
000001f0: d3cb 25bd 6236 6a3e 2d5f 34be 22f9 09be
00000200: f3dd 08be 11a0 5a3e 6dd2 83be 2104 d3bd
00000210: 43b7 333d 29df 263e 8a20 133e 5e19 a8bb
00000220: 0455 61be 5c1d 1c3e 9d40 29be 495b ee3d
00000230: dfe9 d5bc 0f99 883e 9c8f 373e 59e4 73bc
00000240: 1ca1 0abe ebe8 4a3e 80b5 023e dbc0 da3d
00000250: d593 7dbe 9481 2dbe 422f e83d ab21 41be
00000260: a48a e63d 87c4 9a3d 9e87 5d3e cb37 063e
00000270: 32b4 f43d a634 d03d 1f70 0ebe 0903 23be
00000280: 7904 5ebe 7c2b 41bd 27a3 12bc c15b aebd
00000290: 5657 4b3d 7b1f 143e 3565 c63b d407 cbbd
000002a0: d514 54be 235c ebbd 1cfd 663d cecc 61be
000002b0: 7fd6 6fbe 1990 0db9 c8bc d6bb 5506 34be
000002c0: 91f3 253d 7850 c83d 2c39 32be fcfd 07bd
000002d0: 37f9 713e bf64 823e e2a5 67be acb4 01bd
000002e0: f30e 2dbd 5029 c9bd 243a 17be 5a03 433e
000002f0: c532 44bd ba8a 77be 15b0 e6bd b776 22be
00000300: 8b34 8bbe 935a 183d cd07 d23c d941 ce3d
00000310: 48f4 483e e461 653d 5dc7 583e 91f9 11be
00000320: 8868 2cbe f018 a9bc 0036 45bd a012 2ebc
00000330: e069 af3b c5ce 00be 807d 43be 5460 bcbd
00000340: a00c 2c3d b88f ea3d 3b59 4dbe cfa5 4dbe
00000350: 80b3 51bc e084 afbd 98a6 babd 5d70 5dbe
00000360: 7cb3 cd3d 4c38 1abd 249b 343e f60a 13be
00000370: ae57 bdbe 0568 af3c ba15 c33d f613 ef3d
00000380: ff40 8ebd 883b 583e 7303 8abd 0e46 11be
00000390: 997d a5bd ab12 4dbe 9e71 f53d cbb8 1f3e
000003a0: 6a59 773e 023a b0bd c721 42bd 7c8b 7cbd
000003b0: 945e eb3d 878e bebd f17d 10bd 3b19 c63d
000003c0: cce8 debe fd3b 3a3e 3df6 2cbe 88b0 4fbe
000003d0: 5cf5 a0bd 8af0 34be 1cca 52bd 3ab2 153e
000003e0: 5d24 f93c 55d5 1cbe eeee 16be 956c a2bd
000003f0: fe79 b63c 507e 573e 4647 a43d a2fd 3c3d
0.30539602 0.21573642 0.24295226 -0.059800725 -0.084887534 -0.09298161 -0.06362786 0.044667635
-0.07844204 -0.0923015 -0.0023130805 0.14094333 0.19403365 -0.08064854 -0.12858464 0.045286443
0.108287655 0.07875693 -0.11265364 -0.024515407 -0.044306308 -0.041782923 -0.20801383 0.17421922
-0.116010986 0.07984768 -0.16186759 -0.19477594 0.028024115 0.09901439 -0.2491536 -0.008361312
-0.16050677 -0.015085043 -0.09390983 0.07915742 0.21963152 -0.25823954 -0.10008942 0.27183744
0.020952215 -0.0055945087 0.12432109 -0.06822848 0.13078941 -0.114399746 -0.094203465 0.20721002
0.011483575 -0.09092733 0.15491669 -0.13982593 -0.020911727 0.0013622585 -0.09895814 0.102981746
-0.045089476 0.19947046 0.0715477 -0.25216055 0.2530277 0.014600464 0.10886393 0.16217406
-0.044031654 0.01768344 -0.09584947 -0.12005827 0.20327426 0.18756615 0.12813115 0.12476968
0.12776656 0.026209224 -0.100960635 0.15343828 -0.20037548 0.19601001 -0.009697531 -0.15156873
0.013787197 0.092104435 -0.09764774 -0.12595187 0.057587158 -0.16207598 0.08312247 -0.30406064
-0.29335868 -0.03157005 -0.103621565 0.018614782 0.12521671 -0.03742099 0.06048239 0.15782516
0.16240369 -0.15220661 0.15384485 0.29096463 -0.17453986 -0.07569545 0.23190266 -0.08791312
0.25553653 -0.09051768 0.029334968 -0.10535412 -0.3281579 -0.0032082272 -0.068180636 -0.18158816
-0.05755113 0.20072949 0.115746476 -0.076040365 -0.029144026 -0.11273033 -0.020151949 0.22664042
-0.16755748 0.102458596 0.11711435 0.16705592 -0.040477585 0.22872308 -0.17614432 -0.13473943
-0.13365917 0.21350123 -0.2574648 -0.10303522 0.043875944 0.16296066 0.14367881 -0.005129977
-0.22005087 0.15245575 -0.16528554 0.11638505 -0.026112495 0.26679274 0.17925876 -0.014885985
-0.13538021 0.19815414 0.1276455 0.106813155 -0.24763425 -0.16943961 0.11337139 -0.188605
0.11256912 0.07557016 0.21633765 0.13107221 0.11948432 0.10166292 -0.13909958 -0.15919127
-0.21681394 -0.04716061 -0.008950031 -0.085135944 0.049643837 0.14465134 0.0060545453 -0.099136025
-0.20711072 -0.11492183 0.056393728 -0.22050783 -0.23421668 -0.00013500488 -0.006553266 -0.1758054
0.040515486 0.09780973 -0.17404622 -0.033201203 0.23630224 0.25467488 -0.22621873 -0.031666443
-0.042250585 -0.09822333 -0.14768273 0.19044247 -0.04789998 -0.24174014 -0.11264054 -0.15865599
-0.27188525 0.037195753 0.025638485 0.10071153 0.19624436 0.05600156 0.21169801 -0.14255358
-0.1683675 -0.020641774 -0.0481472 -0.010624558 0.0053531975 -0.12578876 -0.19090843 -0.09198061
0.042004228 0.114531934 -0.2005357 -0.20082782 -0.012799144 -0.08570266 -0.091138065 -0.21624894
0.100439996 -0.037651345 0.17637306 -0.1435965 -0.36980957 0.021411905 0.095256284 0.11673729
-0.06945991 0.2111646 -0.06738939 -0.1418688 -0.080805965 -0.20026653 0.119845614 0.15597837
0.24155203 -0.08604814 -0.047395494 -0.06165646 0.11492649 -0.09304529 -0.035276357 0.09672781
-0.43536985 0.18186946 -0.16890807 -0.20282185 -0.078592986 -0.17669883 -0.051462278 0.1461877
0.030412847 -0.15315755 -0.14739582 -0.07930867 0.022274967 0.21044278 0.08021407 0.04614032

bias f4 [50]
00000000: 8101 b43d d135 f73d 3f8a a13d b22c 063d
00000010: 0ed8 2dbd 8ece bebd caab db3d d4c5 02be
00000020: d75e 9dbd 200d a83c 20b3 34bd 6386 023e
00000030: af07 58bd 6178 21be f83e c5bd f027 333d
00000040: f799 4c3e 1ded b9bd 065d 263d 2453 27bd
00000050: 1588 46be 6db2 0dbe 9d5f 2c3e b0bc 87bd
00000060: f1ea 9b3c 686c 1a3e 5b14 163e 767e a8bd
00000070: 35d5 30be 166b 0d3e 163a 2ebe efd3 893d
00000080: eb28 5abe 84b7 d8bd c4bc a63c 2d19 3d3e
00000090: 0d0c 4e3e 9e89 4e3e d64c 0a3e b988 a03d
000000a0: e0c1 17be 01fd d6bd b576 973d 7fe5 e0bd
000000b0: 01ca 28be 23dd 14be aec7 6abd 30a7 513e
000000c0: 7482 0cbe be82 e83d
0.08789349 0.120708115 0.078876965 0.03275747 -0.042442374 -0.09316741 0.107261255 -0.12770778
-0.07684105 0.020514071 -0.04411614 0.12746577 -0.052741703 -0.15768577 -0.09631151 0.04373926
0.19980608 -0.09078429 0.040616058 -0.040850773 -0.19387849 -0.13837595 0.16833349 -0.06627786
0.019032927 0.15080416 0.14656202 -0.082272455 -0.17268832 0.13810381 -0.17014346 0.06729876
-0.21304671 -0.10581878 0.020353682 0.18466635 0.20121785 0.20169684 0.13505873 0.07838578
-0.14820051 -0.104974754 0.073956884 -0.10981273 -0.16483308 -0.14537482 -0.057319336 0.20473933
-0.13721639 0.11353062

weight f4 [100, 50]
00000000: d82c a9bd e828 0a3c 60d9 d9bd 5450 9dbc
00000010: be09 633d 5b7b 483e 79e2 07bd 7c56 d63d
00000020: 1d0b a9bd 20a2 28bd a0ab c53d 514d f6bd
00000030: 4c5a 3dbd ecfb 74be 1c4f 703c 8f39 7d3d
00000040: 5db5 f6bc 5aa0 713a 6175 e03d 4445 3fbd
00000050: 796e 1f3d 1e31 6f3e 5452 70bd d4a8 41bd
00000060: 0e6b 54be bf84 b0bd df8c 05be 8326 20bd
00000070: d4d3 f6bd ca3f fcbd 7a80 79bd edd8 093e
00000080: c9a2 e9bb 03de b0bd 2de3 c5bc 67c6 9fbd
00000090: 1fb0 053e 57af 93bd 8c1a cabc 73e0 f33d
000000a0: c072 b2bd 244d 433d f8f2 213e c413 793d
000000b0: 3408 dd3d 272e 51be cfa1 e73d 87ce 163e
000000c0: 0b50 173e 0e4f 023e 9872 e63d d436 713e
000000d0: a97c aebd 6512 16bd eb51 c73d 4d6a 973e
000000e0: 71d3 343d 2f5a a3bd 6a70 1fbd 4ff6 bb3d
000000f0: d63a 66bd 2d95 913d fbda 4fbd c667 a5be
00000100: 7dcd 8a3d 6a1f be3d f146 333d c74a bdbd
00000110: b31b 0d3e b46a 153d de9c 063e f079 693e
00000120: ccfa 68bd 5e26 483e 8313 cdbd e0e5 193d
00000130: a36a bdbc 95d5 9dbe 6ebd 50bd 7cf1 6abd
00000140: cc09 c43d 8060 ba3d 48b0 7e3d 200b 973d
00000150: e19f d9bd 0bdb 17bd aea9 713c 9dd0 d33d
00000160: f5d7 1c3e e726 4a3e 89f9 0f3e 5b67 0dbd
00000170: cd24 de3d f0d3 61bc 32d7 773d c36c 59be
00000180: b022 0abd 71a4 ac3d b970 8ebc cb5a 1f3e
00000190: bd2b 833a 38d5 4ebe 4a29 8a3d 2824 56bd
000001a0: d872 a9be c27b 2cbe ecfe 173e ad34 81bd
000001b0: 094f 7a3d 4483 103d ec7a 6b3d 1d97 803c
000001c0: 7940 4b3e 33df 6b3e 8013 373e 81a1 d4bd
000001d0: d591 bbbc 1b72 20bd 00ef bcbd 4f47 533d
000001e0: 3d1f 683d 8391 79be e9b2 023e bd11 41be
000001f0: 18c1 85bd 145b e53d 826d 533e 9539 f83d
00000200: 870c b4bc 8eb5 0f3e 6f95 aa3c c0a1 dc3b
00000210: 4960 da3d 5c59 69bd 972e b43d 2f4b 06be
00000220: 4052 93bd 503f 0e3e fa02 0bbd 9893 76be
00000230: e8dc e9bd 0530 99bd 14b8 16be 1764 d9bd
00000240: ba43 3c3b d19f 0d3d fe2b 863d ad7b 56bd
00000250: adc8 37bc fecd f5bd 1c1a c63c a069 933d
00000260: 1419 a23d 2e13 35bc db15 f43d 4b97 04bc
00000270: dba2 92bd 43ab 053e d03e 6e3c 7724 a3bd
00000280: 80b2 ee3a 93d5 04be 8ac2 e13d fc8b 11be
00000290: 16f7 c43c 458d 87bd 0bfe 10be 47ff 34bd
000002a0: 4b1c 93bd f017 c13d 6f94 b2bd 00cc d6bb
000002b0: cc43 42bd e72a b3bd 8f31 8f3c e7a7 9f3d
000002c0: 6e1c ec3c 804c cd3b a46f 8cbd 25b0 debd
000002d0: 11db 9a3c 5be9 003e 1457 c0bd 5216 ee3d
000002e0: f51a be3b 8b9d 86bc 25d8 e13d e1ce 123d
000002f0: 8ae5 1dbd 8886 773d 346a 96bc 09e5 0abd
00000300: 9983 ba3d 3492 1e3d 7fd2 af3b bf4a 873d
00000310: 021a 6abc e60b f3bd fc00 10bd ca45 86bc
00000320: bc0a 583d 87ea 373e 6927 f73d 3a7f c93d
00000330: 2b27 f33c 916b fabc e4b4 cf3d fefb 3e3d
00000340: 59f8 293d 6c3b 9c3d 2c59 d43d 798d 37bd
00000350: f978 f3bb c658 b7bd 0653 6b3d f323 02be
00000360: 3722 abbd 8cbf bcbd 9e23 fcbd 2213 6f3d
00000370: 2748 6dbd 1d2d 893e a07d 16be 62d4 bf3d
00000380: a4ea 26be 094f 373c e42c 58be 3143 b6bd
00000390: 36e1 38bd 3708 e03d 0ec8 84bd 039e 423c
000003a0: a370 6ebd f833 c4bd ae99 ae3d fc28 9fbd
000003b0: d9da 0c3e 0436 993d d03a ea3d c70b 983b
000003c0: e415 233d dbe2 95bd 689a 943d e0bf 14bd
000003d0: 9193 a03d 5bf7 41bd 1815 103e 64b4 103e
000003e0: 4de1 773d 8541 9c3d 7b9c 253e ec60 5c3e
000003f0: 716c f93d ee6b c5bd f44b d33d c9ba 423e
-0.082605064 0.008432604 -0.10637164 -0.019203342 0.055429213 0.19578306 -0.033174966 0.10465714
-0.08254073 -0.04117024 0.096518755 -0.12026466 -0.046228692 -0.23924226 0.014667299 0.06182247
-0.030115778 0.00092173147 0.10959888 -0.046696916 0.038923714 0.2335858 -0.058672264 -0.047280148
-0.20743963 -0.08619069 -0.1304202 -0.039099228 -0.12052122 -0.12316854 -0.06091354 0.13461657
-0.007130001 -0.086360954 -0.024156177 -0.07801514 0.13055466 -0.07211178 -0.024670862 0.11908045
-0.08713293 0.04768099 0.15815341 0.060809866 0.1079258 -0.20427762 0.113101594 0.14727221
0.14776628 0.1272547 0.11252326 0.23556072 -0.08519871 -0.036638636 0.097324215 0.2957329
0.04414696 -0.079761855 -0.038925566 0.09177839 -0.056208454 0.07108531 -0.050745945 -0.32305735
0.06777475 0.092833355 0.043768827 -0.09242778 0.13780098 0.036478713 0.13145778 0.22800422
-0.056879804 0.19545886 -0.10013487 0.03757274 -0.023122137 -0.30827013 -0.050961904 -0.057359204
0.09572181 0.09100437 0.062179834 0.07375169 -0.106261976 -0.03707413 0.014749927 0.10342524
0.15316756 0.19741403 0.14060034 -0.034522396 0.10846863 -0.01378344 0.06050796 -0.21232896
-0.033724487 0.08429802 -0.017387735 0.15561979 0.0010007542 -0.20198524 0.067461565 -0.052280575
-0.3309543 -0.16844085 0.14843339 -0.06308875 0.06111053 0.035281435 0.057490274 0.015697056
0.19848813 0.23034362 0.17878532 -0.10382367 -0.022896687 -0.03917132 -0.09225273 0.051581677
0.056670416 -0.24371915 0.12763561 -0.18854423 -0.0653097 0.111990124 0.20647243 0.12120358
-0.02197863 0.14034101 0.020823209 0.0067331493 0.10662896 -0.056969985 0.08797949 -0.13114618
-0.07193422 0.1389134 -0.033938386 -0.2407974 -0.11419088 -0.07479862 -0.14718658 -0.10614794
0.0028726892 0.03457624 0.065513596 -0.05236404 -0.011217278 -0.120021805 0.024182372 0.07197881
0.079149395 -0.011051936 0.11918231 -0.008092712 -0.071599685 0.13053612 0.014541343 -0.079659395
0.0018211156 -0.12972097 0.110234335 -0.14213556 0.024043601 -0.06618742 -0.1415941 -0.044188764
-0.07183131 0.09428394 -0.08719718 -0.0065550804 -0.047427937 -0.08748417 0.017479686 0.07795697
0.02882215 0.006265223 -0.06857231 -0.10873441 0.018903287 0.12589018 -0.09391609 0.11625351
0.0058015534 -0.016432544 0.110275544 0.035841826 -0.038548984 0.060431033 -0.018361188 -0.03390983
0.091071315 0.03871365 0.0053656693 0.066060536 -0.014288427 -0.11867504 -0.03515719 -0.0163907
0.052744612 0.17960559 0.12068064 0.0983872 0.029681763 -0.03056887 0.10141924 0.046627037
0.04149661 0.07628521 0.10368571 -0.044812653 -0.0074301925 -0.08952479 0.057452224 -0.12709026
-0.08356135 -0.09216222 -0.12311481 0.058367856 -0.057930138 0.2679223 -0.1469636 0.09366681
-0.16300446 0.011188277 -0.21110874 -0.088995345 -0.045136653 0.10939067 -0.0648347 0.011878493
-0.058212887 -0.09580225 0.08525406 -0.07771489 0.13755359 0.07481006 0.11436999 0.004640076
0.0398158 -0.0731866 0.07256013 -0.0363158 0.07840646 -0.047355037 0.14070547 0.14131314
0.060517598 0.07629684 0.16172974 0.21521348 0.12178887 -0.096397266 0.10317221 0.19016565

bias f4 [100]
00000000: 36bc 1b3e a837 b1bd 7f81 e83c 5d7c e1bd
00000010: ccf5 ef3b 644a b53d 5481 8bbd c0e2 ab3c
00000020: 1706 ac3d 5b41 8d3d ed31 96bd 704b c93c
00000030: 2890 d0bd 527c 073e f29b 60bd 0122 02be
00000040: 4dec 773d 8fc8 71bd 2130 dabd 1aa7 8cbd
00000050: 063b b33c 6236 973c 8240 5f3d 87ad f13d
00000060: 3e7e 8bbd daca 863d a8ca 783d 3133 143d
00000070: 9f85 d4bd ae23 76bd 6b4b b73c 7312 7d3d
00000080: 9849 b7bc 5f63 1e3e b428 64bd be2c 443d
00000090: 309b 05bd 58dd 8fbd d246 b83c 7d3a dfbc
000000a0: 0dcf f2ba 615a 0c3c cb66 6c3d 2fd8 8c3d
000000b0: 96b4 03bd 748d 893d e08e ff3c b539 84bd
000000c0: 8764 0abc 2a8a 443d 36a8 f3bc 5ab4 053e
000000d0: 51bf 963d db75 a43c 25d2 be3d 3270 e03d
000000e0: de97 1c3d 444f 143e 0735 0bbd e7e4 d4bd
000000f0: 3352 08be d951 1dbd 337d 403d eb45 bcbc
00000100: cc4e e8bd 485f eb3d a4c2 c03d 11af 063e
00000110: 466b 633d e5dc d7bd 67be 6dbd 1e60 f13d
00000120: 8948 28bd 6bf4 95bd a399 d1bc 6cb6 37bd
00000130: 6ac2 24bc dd44 e5bd bde3 dc3d c070 fc3d
00000140: 6c4b d9bd 8da0 71bd 1c11 4cbd dd8c a3bb
00000150: 9ddd 193d d18b a0bc 4c03 42bd 4307 1e3e
00000160: 6fa7 103e 4e11 fb3d 09e6 ec3d bd35 07be
00000170: fa19 52bd 8c2b fabc 9da0 54bd 0802 18bd
00000180: 3628 ff3d 8549 543d 1c49 5b3c b643 813d
0.15208516 -0.08653194 0.028382061 -0.110100485 0.0073230024 0.088520795 -0.06811777 0.020982146
0.08399599 0.06897231 -0.07333741 0.024572104 -0.101837456 0.13231018 -0.05483622 -0.12708284
0.06052809 -0.05902916 -0.10653711 -0.068678096 0.02187873 0.018458549 0.05450488 0.11800676
-0.06811188 0.065816596 0.060740143 0.036181632 -0.10377049 -0.06009262 0.02237483 0.061785173
-0.02237396 0.15467595 -0.05570288 0.047894232 -0.0326187 -0.0702464 0.022494707 -0.02724957
-0.0018524841 0.00856647 0.05771522 0.06877171 -0.032154642 0.06716433 0.031196058 -0.06456319
-0.008446819 0.047983326 -0.029743295 0.1305708 0.073607095 0.02007573 0.09317426 0.109588996
0.03823077 0.14483362 -0.033986118 -0.10395222 -0.13312607 -0.038408134 0.0469944 -0.022982558
-0.11343154 0.11492783 0.09412125 0.1315272 0.055522226 -0.10540179 -0.05804291 0.11785911
-0.0410848 -0.0732201 -0.025585955 -0.044851705 -0.010056118 -0.11194775 0.10785625 0.12326193
-0.10610089 -0.058991004 -0.049821004 -0.0049911574 0.037564863 -0.01959792 -0.047366425 0.15432458
0.14126371 0.1225916 0.11567313 -0.13204093 -0.051294304 -0.030538343 -0.051910985 -0.037111312
0.124588415 0.051827926 0.01338413 0.06311743

weight f4 [50, 100]
00000000: 2f41 2fbe 6713 243c 60f6 873d ddde b3bd
00000010: 4c55 7fbd 16c5 f1bd 7fac e93c d2c3 ecbc
00000020: e4f6 eb3c bddf cdbd 5b86 1c3d 003b 413b
00000030: b597 a63d 65f3 47be 759f 18be 2034 c1bd
00000040: 8724 9fba 8e9e c23d ee29 8cbd aee8 413e
00000050: 791f b73c 1971 67bd 9813 a6bc 707a 1e3d
00000060: 0640 7f3d 795e 39be 8ed0 46bd faa5 f2bd
00000070: 2289 193e e9be 5cbd c6db d9bb f2b9 69bd
00000080: 2381 273d c126 37bc 3599 b03d 2467 783d
00000090: d605 0a3e fb27 603d 38fa 773d 9bf4 d33c
000000a0: 4782 393d 122e 60bd fb09 833d c755 cd3d
000000b0: f1d3 183d 5fed b1bc deb4 c7bd c7ca 2a3e
000000c0: 4671 57bc 33d6 8f3c 9bee 833e 2d8b 20be
000000d0: 0ada 24be a47c 773e de18 9b3d 457f 2c3e
000000e0: d121 0139 db6e de3d 8e22 90bd e9ff 253e
000000f0: 0f03 7a3d def3 07bd 8832 fb3c cfd3 80bd
00000100: 8c0e 26bc 2e85 11bd fd3b 163e 3e26 393e
00000110: 8a28 f43c aa6d dd3d c8eb 343e 1618 243e
00000120: 1517 aabc 4686 94bd c42b 7ebd 67e8 e63b
00000130: 4767 89bd 8001 0b3a 1cf3 0ebd cd83 4a3d
00000140: 525b cdbd 3a96 fb3c ca45 7c3d 4bfc 293e
00000150: bd56 0f3e c029 893e ac5a f4bd 4493 983d
00000160: bfa0 55bd 2a6c 72bc 2f1c 3ebb bfff 633c
00000170: e796 31bd 6d32 99bd 131d 58bd 4119 04be
00000180: c9e2 2a3c d931 2fbd 3b59 78bd 8c98 3b3d
00000190: ad44 9fbd 054f b13d 509a ff3b a2d9 193d
000001a0: 3bdf c4bd e049 5ebd 2453 e03c 309d dfbb
000001b0: c320 69bd fd13 ad3d 44f3 e03c 3420 8abc
000001c0: 1817 4abc 5889 8d3c f8f7 afbd 7813 8ebc
000001d0: dac3 67bd 87a2 afbd d7b3 843d 4192 be3d
000001e0: 0402 dd3c e8a5 b7bd 6e8b 423d e098 b4bd
000001f0: 70ed 733c ccb8 07bd 5566 863d 80c4 223c
00000200: 800a a4ba 34ab a9bc 9e5f a6bd d410 9c3c
00000210: 30e8 62bc e8c6 51bc 980e c83c 87c0 2bbd
00000220: 8720 c3bd 8286 483d a4fa cf3c 3adf 583d
00000230: b4e8 af3c def5 303d 0f3b c43d ebbc 853d
00000240: 8718 23bd 4691 05bd ad8b 973d 1310 95bd
00000250: f02a 0cbd 5ac4 46bd b4ff d93c 98ed cbbc
00000260: 065d 153d d9a1 853d 9487 d5bc ad91 33bd
00000270: d066 1fbc 00a0 86bd d8e8 23bc b451 cf3c
00000280: 20a7 e1bc 1d1c 8a3d b4aa e0bc 8f0b a43d
00000290: f80a c53c 1ab8 493d 23bd 6ebd dde5 a3bd
000002a0: 12da 403d 62ae 103d ad74 37bd 6afd 313d
000002b0: 9f6c c13d 486d 80bd b76b 4bbd 7a57 b6bd
000002c0: a06e 39bb 1b76 a0bd 5f14 b5bd 73b3 bd3d
000002d0: e0fc 81bb 9a77 0f3d cb2c 90bd 633f a73d
000002e0: e0d5 aa3c 9822 a9bd c896 c3bd 8c85 b53c
000002f0: a499 07bd 9842 96bd 2bdb a7bd a803 b3bc
00000300: b985 a23d 2725 24bd 90aa 95bd 309b 5ebd
00000310: 8ba1 9b3d 281e 84bc 23df 48bd 465c 473d
00000320: 4559 e3bd 85b5 b0bc 279a 683d 7e4b 0ebd
00000330: 9909 443d e550 21bd a6e8 efbc 5ddb a83d
00000340: 74b9 0abe 2c4d 0cbe e00a c4bc 6e0a 503d
00000350: ab43 c8bc d829 9fbe eb4f c43c eb0d b1bd
00000360: 3a90 503d 9788 113e e853 b03c c118 803e
00000370: 66a4 a93d 76a5 5dbd 2467 1cbe 7a10 223e
00000380: 70a7 283d 3ea8 153d ea53 3f3c aca5 493b
00000390: 0c3a dd3d 9271 e6bd 3018 cdbc 55ee 353c
000003a0: 56a1 c13d 3e52 103d 3460 933d 683d d63c
000003b0: c3ca 293e e89b 0b3e dd16 913d 964c 15be
000003c0: cf01 f33d af6b b4bd 5581 1b3e 722f af3d
000003d0: 55a0 cd3d f47a f1ba 3bb6 1fbe 56cf 813e
000003e0: 9256 e73d 1d0e 50bd c49a 063e a44b 69be
000003f0: a4d8 b2bc 86f5 213e 683b 913c e8c7 343e
-0.1711471 0.0100143915 0.06638789 -0.08782742 -0.062337205 -0.11805169 0.028524635 -0.028901968
0.02880425 -0.1005244 0.03821407 0.002948463 0.081344046 -0.19526441 -0.14904578 -0.0943377
-0.0012141623 0.09502898 -0.06843935 0.18936417 0.022353875 -0.056504343 -0.020273015 0.038690984
0.062316917 -0.18102445 -0.048538737 -0.11848064 0.14993718 -0.053893004 -0.0066485135 -0.057062097
0.04089464 -0.011178673 0.08622972 0.060645238 0.13478789 0.05472563 0.06054136 0.025873473
0.045290258 -0.054731436 0.06398388 0.10026126 0.037311498 -0.021719633 -0.097512946 0.16678916
-0.013149565 0.017558193 0.2576798 -0.15678091 -0.160988 0.2416864 0.075731024 0.16845424
0.00012314996 0.10860988 -0.07037841 0.16210903 0.061038073 -0.033191554 0.030663744 -0.06290399
-0.010135304 -0.0355274 0.14671321 0.18080994 0.029804487 0.108119324 0.17668068 0.16024813
-0.02076296 -0.07252173 -0.062053457 0.0070467475 -0.06709152 0.0005302653 -0.034899816 0.0494421
-0.100271836 0.030711282 0.061589994 0.16600148 0.13997932 0.26789665 -0.11931357 0.07449964
-0.052155253 -0.014796296 -0.0029008498 0.013915955 -0.043356802 -0.07480321 -0.052762102 -0.12900259
0.010430046 -0.042772148 -0.06063197 0.045799777 -0.07776771 0.0865765 0.007800378 0.037561066
-0.0961289 -0.05426967 0.027383395 -0.006824158 -0.05691601 0.08451078 0.027459748 -0.016861059
-0.012334608 0.017277405 -0.08592218 -0.017343268 -0.056583263 -0.085759215 0.06479614 0.093052395
0.0269785 -0.08967191 0.04749625 -0.08818221 0.0148881525 -0.03313522 0.06562487 0.009934545
-0.0012515336 -0.020711519 -0.08123706 0.019050993 -0.013849303 -0.012803771 0.024421021 -0.041931655
-0.095276885 0.0489564 0.02538807 0.05294726 0.021473266 0.043203227 0.09581577 0.06530174
-0.039818313 -0.032609247 0.07399688 -0.072784565 -0.034220636 -0.0485271 0.026611187 -0.024893567
0.036465667 0.065250106 -0.026065625 -0.0438401 -0.009729102 -0.06573486 -0.010004245 0.025307514
-0.027545512 0.067436434 -0.027425148 0.08010017 0.024053082 0.04924784 -0.058285844 -0.08002827
0.047082968 0.035322554 -0.044789005 0.043454565 0.09444546 -0.06270844 -0.04966327 -0.089034036
-0.0028294697 -0.07835027 -0.08841776 0.09262743 -0.0039669126 0.03502617 -0.070397936 0.08166387
0.020853937 -0.08258551 -0.095502436 0.022158407 -0.033105507 -0.073369205 -0.081961 -0.02185233
0.07935662 -0.040074494 -0.07307923 -0.054347217 0.07599171 -0.01612766 -0.049040925 0.048671983
-0.11101011 -0.02157093 0.056787636 -0.034739964 0.047860716 -0.039383788 -0.02928574 0.08244965
-0.13547307 -0.13701314 -0.023930967 0.050791197 -0.02444633 -0.31086612 0.02396389 -0.08645233
0.050918795 0.14212261 0.021524385 0.25018886 0.0828331 -0.054112874 -0.1527372 0.15826598
0.041175306 0.0365374 0.0116777215 0.0030768914 0.10802087 -0.112521306 -0.025035948 0.011104186
0.094546005 0.035234682 0.07196084 0.026152328 0.16581254 0.13633692 0.07084439 -0.14579996
0.11865579 -0.088096015 0.15186055 0.08553971 0.100403465 -0.0018423484 -0.15596859 0.25353497
0.11295809 -0.05079471 0.13144976 -0.22782761 -0.021831818 0.15816316 0.017728522 0.17654383

bias f4 [50]
00000000: 9fee 623d 340b edbc 8d9c 233d be89 83bc
00000010: 8668 0fbd 67b3 aab9 d8c7 c53d effb c73d
00000020: 3fc0 4c3c ac9a 7fbb 6987 e23c 63c8 19bd
00000030: 02df 30bd fd35 9d3d 5ca6 ef3d 92c5 97bd
00000040: 025b c83d 1bc3 bc3c 327f 973b b887 d93c
00000050: 64be 7dbd 6ec6 d73b 8eb9 bb3b e796 c5bc
00000060: ca80 973c 9884 713d 5311 9cbd 6ac2 9fbc
00000070: f176 d23c ef8d a83d b85a 883d 1c58 9a3d
00000080: 8adf 853d f0fa b63c 873a b73d d15b 263d
00000090: 2cf8 1cbd a828 c3bd e951 0b3e 044b b23d
000000a0: e4b4 53bd 2f00 c93d 577a f13c db6e 87bd
000000b0: 2a34 b5bc 6050 1eba 8dab c2bd 7268 173d
000000c0: 14e5 9e3d c20e 903c
0.055403348 -0.028936006 0.03994422 -0.016056892 -0.03501179 -0.00032558592 0.09657258 0.097648494
0.012497007 -0.0039002104 0.02765246 -0.03754462 -0.043181427 0.07676313 0.117016524 -0.074107304
0.09782983 0.023042252 0.004623317 0.026553974 -0.06194915 0.006584934 0.005728907 -0.024119807
0.018494029 0.058964342 -0.07620492 -0.019501884 0.025691481 0.08230197 0.06657928 0.07536337
0.06536777 0.022336453 0.0894671 0.040614907 -0.038322613 -0.09529239 0.13605465 0.08705714
-0.051686183 0.09814488 0.029477281 -0.06612941 -0.0221196 -0.00060391985 -0.09505377 0.03696484
0.07758537 0.017585162

weight f4 [1, 50]
00000000: 32c8 2b3e bf74 103e a1ec 2f3e ab25 5bbe
00000010: f669 983d 44c5 1fbd 745f 593e 26cc 563e
00000020: 2c4d 853e c976 2cbe d689 80be d4e4 e9bd
00000030: 7078 393e f559 2ebe 73e6 563e 38ae 763d
00000040: e2e0 ebbd 7566 773e 5bea 13b9 5005 5bbe
00000050: 0e65 7b3e 6c52 743e de15 5b3c 9a8e 833e
00000060: ac1b 06be 1829 34be c418 603e d96e 41be
00000070: 908e e1bd b06c 7abe 84c0 7b3e 1227 58be
00000080: 491d 333e 2886 183e eaf4 afbd dde5 0d3e
00000090: 91ae 383e 7262 bbbd e873 0e3e b617 0f3e
000000a0: 35ed 613d 4bbf 143e 19dd 603e aaf1 5c3e
000000b0: 3b5f e03d 5061 49be 0d29 50bd 45fa 2b3e
000000c0: 5180 11be c600 2fbe
0.16775587 0.14107035 0.1718011 -0.21401088 0.074420854 -0.039006487 0.21227819 0.20976314
0.2603544 -0.16842188 -0.2510516 -0.114205986 0.1811235 -0.17026503 0.20986347 0.06022474
-0.11517502 0.24160178 -0.00014106317 -0.21388745 0.24550268 0.23859566 0.013371913 0.25694734
-0.13096493 -0.17593801 0.21884447 -0.18889941 -0.1101352 -0.24455523 0.24585158 -0.21108654
0.1749164 0.14894927 -0.085916355 0.13857217 0.18035342 -0.09149636 0.13911402 0.13973889
0.05515786 0.14526097 0.21959342 0.21576563 0.10955664 -0.19666028 -0.0508204 0.16794689
-0.14209105 -0.17090139
