experiments/german_credit/models/model_nn.pkl (torch, 48399 bytes, 7 tensors)

weight f4 [50, 20]
0.21543092 0.1697652 0.22009325 -0.017411247 -0.18639149 -0.14380997 -0.05928643 0.030253887
-0.072624475 -0.1288214 -0.018137246 0.14103034 0.18591452 -0.11040148 -0.12819976 -0.010300368
0.09843129 0.10009596 -0.08323181 0.07744801 -0.038017437 -0.026835516 -0.18133396 0.16017857
-0.1576855 0.05572796 -0.111910425 -0.1885125 -0.01424396 0.074196875 -0.20515372 0.016165242
-0.084070295 -0.031853363 -0.099713296 -0.027857259 0.20115003 -0.21496265 -0.105788924 0.19002861
-0.003551155 -0.038567316 0.06849364 -0.12275804 0.09029524 -0.17054538 -0.104492076 0.16218027
-0.017862083 -0.20386118 0.11390159 -0.18992054 -0.042728785 -0.03336109 -0.13502803 0.06892973
-0.04670605 0.09483121 0.080645 -0.20652482 0.16699553 0.0055743605 0.17655179 0.1391607
-0.06575389 -0.0442715 -0.0817914 -0.10586961 0.17321187 0.20850074 0.09897852 0.20087728
0.075891346 0.034828514 -0.08893694 0.20867616 -0.15969181 0.16516861 -0.028557599 -0.08834238
-0.0010715723 0.13742211 -0.19810465 -0.17335142 -0.040925235 -0.22162567 0.030385107 -0.15832096
-0.20070411 -0.09083283 -0.119817555 -0.0011530519 0.149849 -0.054453343 0.04451582 0.10100794
0.060151994 0.010991126 0.036478877 0.13163072 -0.22268777 -0.11145553 0.19101077 -0.045698296
0.12665777 -0.16222356 0.07158369 -0.012451795 -0.18507397 0.06242129 -0.01796171 -0.19088686
-0.05684143 0.20155571 0.06589113 -0.12166404 -0.106523365 -0.089928664 -0.09856634 0.058308356
-0.11639822 0.14731382 0.12359306 0.18900798 0.0014545972 0.23626614 -0.14931242 -0.114085354
-0.089383915 0.13059828 -0.19393086 -0.06258634 0.115780495 0.24182117 0.18139988 0.123429544
-0.1348078 0.09354893 -0.049165595 0.043823384 -0.028639078 0.20925972 0.14587137 0.023395792
-0.21742159 0.17519268 0.15338287 0.07600227 -0.22098868 -0.14857107 0.11771804 -0.20978627
0.095460266 0.025804937 0.20436719 0.07655388 0.118126184 0.07222015 -0.10555182 -0.12148027
-0.20846383 -0.02551241 -0.012198773 -0.11855407 0.058349594 0.10081768 -0.04524575 -0.10392264
-0.25884774 -0.16281004 0.031537686 -0.2787649 -0.27114975 -0.043975648 -0.056406695 -0.22909334
0.011981367 0.050687317 -0.22963704 -0.08765724 0.13249817 0.19945702 -0.15639141 -0.12017983
-0.12663859 -0.11382789 -0.14495516 0.1715858 -0.011330053 -0.17006865 -0.1584517 -0.19010672
-0.2101357 0.012927443 0.02387634 0.12851048 0.18504012 0.15767553 0.19459134 -0.08680278
-0.16128458 -0.012869421 -0.06085294 -0.04710697 0.004667516 -0.16455266 -0.23643976 -0.10681205
-0.0107740825 0.08644512 -0.22617033 -0.24845956 -0.048519094 -0.123290345 -0.13777763 -0.2518834
0.06996866 -0.07813515 0.13771462 -0.18221965 -0.2461753 -0.03312084 0.060132224 0.18920197
-0.0015096045 0.24846582 -0.036178295 -0.18358731 -0.029733716 -0.017518835 0.120613866 0.27793196
0.26624197 -0.030398168 0.029402543 0.03550703 0.13660622 -0.021275088 0.0047208 0.112199426
-0.1424447 0.19180357 -0.19443876 -0.19754413 -0.012105852 -0.15796421 -0.09743717 0.12913406
0.0010082424 -0.02539672 -0.20757313 -0.0730212 -0.07467665 0.16477245 0.087937176 -0.020488903
00000000: ec99 5c3e eed6 2d3e 2060 613e 08a2 8ebc
00000010: 69dd 3ebe ec42 13be 54d6 72bd 00d7 f73c
00000020: 24bc 94bd c2e9 03be 9094 94bc 426a 103e
00000030: 6060 3e3e 2c1a e2bd cc46 03be e0c2 28bc
00000040: 5896 c93d 1cff cc3d 7075 aabd 109d 9e3d
00000050: 2cb8 1bbd 28d6 dbbc 9caf 39be da05 243e
00000060: 4f78 21be 0043 643d 4b31 e5bd 6c09 41be
00000070: 805f 69bc 88f4 973d d113 52be f86c 843c
00000080: 0c2d acbd ac78 02bd 7c36 ccbd e834 e4bc
00000090: 46fa 4d3e 2b1f 5cbe dda7 d8bd dc96 423e
000000a0: 7fba 68bb c3f8 1dbd 6546 8c3d 9168 fbbd
000000b0: b6ec b83d 73a3 2ebe f1ff d5bd 9612 263e
000000c0: 8153 92bc fcc0 50be 3d45 e93d 887a 42be
000000d0: 6104 2fbd a3a5 08bd ca44 0abe 082b 8d3d
000000e0: d84e 3fbd de36 c23d 3529 a53d 3e7b 53be
000000f0: e000 2b3e 20a9 b63b fec9 343e 2480 0e3e
00000100: faa9 86bd 0856 35bd 4082 a7bd 2bd2 d8bd
00000110: 745e 313e 3881 553e 40b5 ca3d c6b2 4d3e
00000120: ec6c 9b3d 58a8 0e3d 9224 b6bd 34af 553e
00000130: 4086 23be f621 293e a0f1 e9bc daec b4bd
00000140: 0074 8cba 62b8 0c3e f2db 4abe 0983 31be
00000150: 38a1 27bd d7f1 62be 30ea f83c e41e 22be
00000160: 6185 4dbe 9006 babd e862 f5bd 0022 97ba
00000170: 0472 193e 780a 5fbd 3856 363d 40dd ce3d
00000180: f061 763d 2014 343c e06a 153d 34ca 063e
00000190: 4308 64be cc42 e4bd 5498 433e 232e 3bbd
000001a0: 93b2 013e ef1d 26be 789a 923d 9d02 4cbc
000001b0: 0884 3dbe 77ad 7f3d 7024 93bc d877 43be
000001c0: 8fd2 68bd 9f64 4e3e eef1 863d ff2a f9bd
000001d0: ec28 dabd 852c b8bd 26dd c9bd bed4 6e3d
000001e0: 3162 eebd 6fd9 163e 5c1e fd3d 4f8b 413e
000001f0: 2fa8 be3a c0ef 713e 5be5 18be 95a5 e9bd
00000200: ea0e b7bd 8ebb 053e d095 46be 442d 80bd
00000210: 531e ed3d f89f 773e e4c0 393e a1c8 fc3d
00000220: 0e0b 0abe 9596 bf3d dd61 49bd 2680 333d
00000230: 809c eabc 2e48 563e 4e5f 153e 88a8 bf3c
00000240: c4a3 5ebe b665 333e 6610 1d3e 14a7 9b3d
00000250: db4a 62be 0423 18be 2816 f13d 36d2 56be
00000260: ac80 c33d e064 d33c a245 513e 48c8 9c3d
00000270: 24ec f13d 28e8 933d 8d2b d8bd a6ca f8bd
00000280: 8b77 55be 67ff d0bc 5ddd 47bc 7acc f2bd
00000290: fcff 6e3d 8079 ce3d 9c53 39bd 65d5 d4bd
000002a0: b187 84be adb7 26be a92d 013d 46ba 8ebe
000002b0: 24d4 8abe cf1f 34bd b50a 67bd 7297 6abe
000002c0: 7f4d 443c 819d 4f3d f925 6bbe a485 b3bd
000002d0: 9aad 073e 763e 4c3e 1225 20be d820 f6bd
000002e0: 8cad 01be 991e e9bd 206f 14be 30b4 2f3e
000002f0: b0a1 39bc 7a26 2ebe 2a41 22be 56ab 42be
00000300: d02d 57be a0cd 533c 5098 c33c 4098 033e
00000310: 287b 3d3e b275 213e f442 473e a8c5 b1bd
00000320: c927 25be 44da 52bc ef40 79bd 3df3 40bd
00000330: f6f1 983b 7e80 28be 441d 72be 47c0 dabd
00000340: c785 30bc 240a b13d 3299 67be 2f6c 7ebe
00000350: f5bb 46bd a67f fcbd 9415 0dbe dcf6 80be
00000360: bb4b 8f3d 5205 a0bd 1005 0d3e ca97 3abe
00000370: 6115 7cbe b8a9 07bd 354d 763d 29be 413e
00000380: ecdd c5ba d36d 7e3e b12f 14bd 50fe 3bbe
00000390: 1f94 f3bc a983 8fbc 6704 f73d 194d 8e3e
000003a0: de50 883e 9405 f9bc 9add f03c d26f 113d
000003b0: 80e2 0b3e 1849 aebc f1b0 9a3b d0c8 e53d
000003c0: 06dd 11be 2868 443e f41a 47be 0249 4abe
000003d0: a057 46bc 5fc1 21be 248d c7bd b83b 043e
000003e0: 0027 843a c80c d0bc 0d8e 54be 248c 95bd
000003f0: 12f0 98bd 1cba 283e 6818 b43d 58d8 a7bc

bias f4 [50]
0.06755024 0.10274729 0.03244832 0.059493363 -0.063448355 -0.09573778 0.1622784 -0.15103135
-0.10995529 -0.0035927743 -0.076976225 0.15924531 -0.075847596 -0.17107399 -0.13615161 0.08408447
0.15187635 -0.05317615 0.0028908849 -0.049814314 -0.26997116 -0.14733526 0.18564032 -0.054354787
-0.011123616 0.181771 0.12641087 -0.083608836 -0.2116393 0.13033465 -0.17121746 0.002222529
-0.21624841 -0.10581878 0.028302163 0.17791796 0.19371922 0.20436594 0.16638671 0.027294401
-0.14820051 -0.17025337 0.040395398 -0.10981273 -0.17081875 -0.14993897 -0.060364977 0.18749422
-0.18801779 0.10930328
00000000: c857 8a3d 2c6d d23d 88e8 043d 50af 733d
00000010: 36f1 81bd 2b12 c4bd 4f2c 263e f6a7 1abe
00000020: 3d30 e1bd c074 6bbb b6a5 9dbd 3411 233e
00000030: fc55 9bbd 052e 2fbe 546b 0bbe 7b34 ac3d
00000040: 7985 1b3e 3ccf 59bd 0075 3d3b 180a 4cbd
00000050: a939 8abe 0edf 16be 7f18 3e3e 20a3 5ebd
00000060: d43f 36bc 2d22 3a3e da71 013e 1c3b abbd
00000070: f9b7 58be 7276 053e a153 2fbe d9a7 113b
00000080: 3970 5dbe 84b7 d8bd f0d9 e73c 2030 363e
00000090: 555e 463e 4e45 513e 4761 2a3e 8298 df3c
000000a0: e0c1 17be e656 2ebe a575 253d 7fe5 e0bd
000000b0: 1ceb 2ebe 9a89 19be 4441 77bd 7cfe 3f3e
000000c0: bc87 40be 66da df3d

weight f4 [100, 50]
-0.10609148 -0.14100587 -0.13058569 -0.03566546 -0.031706534 0.08517075 -0.058636054 0.06891605
-0.08822702 -0.06636416 0.09182627 -0.09270035 -0.0046530664 -0.10845078 0.029221892 0.028698266
-0.069122165 -0.009801418 0.07789683 -0.08839552 0.020385347 0.038690686 0.050483033 -0.11054025
-0.13046448 -0.11389444 -0.0315442 0.027586818 -0.1085275 -0.11315993 -0.09516924 0.116669245
-0.061540604 -0.086360954 -0.056225248 -0.11818862 0.09038715 -0.09852826 -0.11903479 0.07986263
-0.08713293 -0.022938069 0.029164582 0.060809866 0.12823695 -0.05757326 0.056941524 0.08387889
0.11019622 0.07997109 0.1099145 0.101935446 -0.12505053 -0.038431197 -0.099962994 0.12873071
0.08538906 -0.13594705 -0.0446165 0.077494785 -0.062065084 0.09920792 0.0039672703 -0.14260648
0.122340396 0.0915492 0.0073149954 -0.01239422 0.097791895 -0.0001295656 0.13465613 -0.00031380355
-0.011750902 0.032677505 -0.07947927 0.012859203 0.05193688 -0.13902676 -0.08247289 -0.061225403
0.091122776 0.066711225 0.020263031 0.07375169 -0.10643064 -0.060247086 -0.029795567 0.106383264
0.09466857 0.12111332 0.14060034 -0.09387893 0.012738237 -0.01378344 0.03549784 -0.06371414
-0.0622264 0.05671768 -0.029002566 0.108401604 0.0105626285 -0.06209086 0.07389583 -0.06344519
-0.13544579 -0.026358316 0.09925589 -0.09043686 0.04598677 0.053547487 0.049796045 -0.062190253
0.10191777 0.054897267 0.10823801 -0.14338335 -0.04582658 -0.115194134 -0.10244681 0.03902313
0.040322263 -0.050532386 0.060756538 -0.0027508014 -0.09789279 0.08040956 0.102864996 -0.048429206
-0.04188626 0.09637987 -0.028204642 0.02588501 0.13800861 -0.056969985 0.0737931 -0.10028776
-0.08374355 0.110810116 0.0055365097 -0.14767516 -0.11419088 0.007399578 -0.06931883 -0.10614794
0.0001215134 -0.055756032 0.0581702 -0.068433166 -0.054747906 -0.10709707 0.03432782 0.07197881
0.079365574 -0.0023668706 0.11249693 -0.0057610376 -0.07346452 0.13716002 0.00853584 -0.07932989
-0.0041843895 -0.12645945 0.113560274 -0.14077882 0.023493305 -0.064229876 -0.14415224 -0.049735896
-0.07928467 0.10417558 -0.0900807 -0.0065550804 -0.059796624 -0.088417634 0.010588035 0.07892906
0.018287405 0.006265223 -0.06722415 -0.10821998 0.02953571 0.12655747 -0.06896724 0.11625351
0.015307918 -0.0069277436 0.109881096 0.049887225 -0.039062425 0.06832952 -0.018361188 -0.043558724
0.105943196 0.03871365 0.0030873169 0.07544066 -0.006500289 -0.110088535 -0.026678639 -0.013940252
0.02329661 0.07681699 0.054337233 0.108417794 -0.008638337 -0.14518271 0.12573367 -0.0011163801
0.037303936 0.06280616 0.10368571 0.01654275 0.049648643 0.06048548 0.12661006 -0.14165221
-0.1086886 -0.015618995 -0.11513288 0.035959035 -0.11141218 0.0816548 -0.067470476 0.11118422
-0.098990746 0.0113410335 -0.11745098 0.050393343 -0.0471327 0.12822758 -0.045093626 -0.023397494
-0.10027203 -0.09580225 0.057617486 -0.07963872 0.072490394 0.084439576 0.010686518 -0.061141286
0.0398158 -0.09719008 -0.06688748 -0.0363158 0.040970515 0.08409253 0.095981896 0.108871445
0.047885604 0.011519138 0.13577111 0.08512664 0.10059232 -0.11793581 -0.11069082 0.03678177
00000000: 7d46 d9bd d863 10be 41b8 05be f215 12bd
00000010: b6de 01bd 016e ae3d 5c2c 70bd dc23 8d3d
00000020: 5eb0 b4bd efe9 87bd 690f bc3d aed9 bdbd
00000030: c078 98bb 711b debd c062 ef3c a018 eb3c
00000040: ec8f 8dbd 2096 20bc 6088 9f3d b608 b5bd
00000050: 2cff a63c 207a 1e3d 4cc7 4e3d ed62 e2bd
00000060: 7b98 05be 7d41 e9bd 7e34 01bd c0fd e13c
00000070: aa43 debd 65c0 e7bd 17e8 c2bd 49f0 ee3d
00000080: 0012 7cbd 03de b0bd 724c 66bd e00c f2bd
00000090: e61c b93d 2fc9 c9bd 83c8 f3bd 058f a33d
000000a0: c072 b2bd 9ee8 bbbc 90ea ee3c c413 793d
000000b0: 8c50 033e f0d1 6bbd 843b 693d b2c8 ab3d
000000c0: 8eae e13d e2c7 a33d da1a e13d 88c3 d03d
000000d0: 3f0d 00be 086a 1dbd 66b9 ccbd fcd1 033e
000000e0: 76e0 ae3d b435 0bbe cbbf 36bd 96b5 9e3d
000000f0: f537 7ebd 862d cb3d e0ff 813b 6f07 12be
00000100: 9a8d fa3d 267e bb3d a1b2 ef3b 2011 4bbc
00000110: 1e47 c83d 00dc 07b9 4ce3 093e 0086 a4b9
00000120: db86 40bc d9d8 053d 07c6 a2bd 68af 523c
00000130: c4bb 543d 085d 0ebe 8ce7 a8bd 7dc7 7abd
00000140: 949e ba3d e59f 883d a8fe a53c 200b 973d
00000150: 4ff8 d9bd a6c5 76bd d515 f4bc 78df d93d
00000160: 98e1 c13d 430a f83d 89f9 0f3e 9943 c0bd
00000170: 0ab4 503c f0d3 61bc 2f66 113d 8f7c 82bd
00000180: 1ce1 7ebd cc50 683d ca96 edbc a901 de3d
00000190: e00e 2d3c fc52 7ebd b256 973d 8def 81bd
000001a0: 4db2 0abe 65ed d7bc ac46 cb3d f636 b9bd
000001b0: a05c 3c3d 9c54 5b3d f0f6 4b3d 35bb 7ebd
000001c0: 44ba d03d f5db 603d e4ab dd3d 16d3 12be
000001d0: a7b4 3bbd e7ea ebbd a2cf d1bd b8d6 1f3d
000001e0: f528 253d 0cfb 4ebd d9db 783d ca46 34bb
000001f0: 047c c8bd c4ad a43d e2aa d23d b45d 46bd
00000200: ed90 2bbd cf62 c53d 6c0d e7bc cd0c d43c
00000210: 2152 0d3e 5c59 69bd d620 973d ab63 cdbd
00000220: bd81 abbd 6af0 e23d 9c6b b53b 2838 17be
00000230: e8dc e9bd 2978 f23b 08f7 8dbd 1764 d9bd
00000240: 03d5 fe38 7060 64bd e043 6e3d b026 8cbd
00000250: 573f 60bd b555 dbbd 549b 0c3d a069 933d
00000260: 6b8a a23d 801d 1bbb ca64 e63d 16c7 bcbb
00000270: 9174 96bd ad73 0c3e e8d9 0b3c b677 a2bd
00000280: 341d 89bb 967e 01be 4a92 e83d 5328 10be
00000290: 0875 c03c f48a 83bd a59c 13be deb7 4bbd
000002a0: 0060 a2bd 025a d53d 3b7c b8bd 00cc d6bb
000002b0: 4eed 74bd 4e14 b5bd 7079 2d3c 8fa5 a13d
000002c0: 78cf 953c 804c cd3b d1ac 89bd 70a2 ddbd
000002d0: e0f4 f13c 4898 013e b23e 8dbd 5216 ee3d
000002e0: 10ce 7a3c 2002 e3bb 5709 e13d 8c56 4c3d
000002f0: ecff 1fbd 59f0 8b3d 346a 96bc a26a 32bd
00000300: bff8 d83d 3492 1e3d 9554 4a3b a280 9a3d
00000310: 6000 d5bb 1976 e1bd 298d dabc a865 64bc
00000320: 88d8 be3c 3a52 9d3d b890 5e3d 260a de3d
00000330: d087 0dbc c7aa 14be 54c0 003e 8053 92ba
00000340: 03cc 183d 84a0 803d 2c59 d43d a984 873c
00000350: 605c 4b3d 9fbf 773d 11a6 013e 470d 11be
00000360: 2198 debd d0e6 7fbc caca ebbd c849 133d
00000370: 122c e4bd a23a a73d f62d 8abd 8db4 e33d
00000380: a9bb cabd becf 393c 248a f0bd 4069 4e3d
00000390: 380e 41bd 174e 033e 18b4 38bd 1aac bfbc
000003a0: 6c5b cdbd f833 c4bd 5000 6c3d a019 a3bd
000003b0: d875 943d a8ee ac3d 8116 2f3c 496f 7abd
000003c0: e415 233d 980b c7bd 4efc 88bd e0bf 14bd
000003d0: b3d0 273d b438 ac3d 2892 c43d fef7 de3d
000003e0: b223 443d c4ba 3c3c 9507 0b3e e056 ae3d
000003f0: 5903 ce3d 5488 f1bd deb1 e2bd 7ba8 163d

bias f4 [100]
0.13453451 -0.083042204 -0.00222867 -0.10887463 -0.003531408 0.04982055 -0.07406786 0.027821748
0.02512322 0.054198593 -0.13742223 0.024572104 -0.08751635 0.176419 -0.0709359 -0.12708284
0.058907792 -0.07217842 -0.10017452 -0.090852104 -0.007725363 -0.012191579 0.037174672 0.10829233
-0.10967342 0.043449745 0.05914755 -0.017722718 -0.09246757 -0.09461261 -0.05351075 0.075161
-0.016843334 0.15629163 -0.07553562 0.060416117 -0.020141482 -0.10585128 0.018370228 -0.065514766
0.0031100656 -0.02553233 0.058316916 0.034583222 -0.020602828 0.035736427 0.017048568 -0.07258418
-0.023876138 0.041800454 -0.033206344 0.09399256 0.069923595 0.023721168 0.12275217 0.12011862
-0.0003828109 0.08928694 -0.024459943 -0.13745144 -0.095193945 -0.059638143 0.058289994 0.007869219
-0.10748194 0.113267526 0.07032618 0.1073318 0.08309308 -0.09620359 -0.07832795 0.098167166
-0.09034878 -0.05930125 0.01755177 -0.07689263 -0.024511421 -0.11194775 0.07246901 0.061834823
-0.1233579 -0.081231445 -0.047694877 -0.031087203 0.017093137 -0.044477187 -0.061350204 0.1394815
0.14975366 0.12276082 0.10797337 -0.123594776 -0.052311745 -0.030538343 -0.07835202 -0.10062968
0.10181625 0.03516017 -0.039204217 0.056723505
00000000: 6ac3 093e 0812 aabd e10e 12bb a9f9 debd
00000010: 326f 67bb a210 4c3d e4b0 97bd 6fea e33c
00000020: 36cf cd3c 58ff 5d3d 6ab8 0cbe 704b c93c
00000030: c63b b3bd 2fa7 343e d746 91bd 0122 02be
00000040: 4c49 713d 48d2 93bd 4c28 cdbd ab10 babd
00000050: 0b25 fdbb 30bf 47bc 7844 183d 5ec8 dd3d
00000060: 759c e0bd 5cf8 313d b444 723d 3c2f 91bc
00000070: a35f bdbd 42c4 c1bd 172e 5bbd 03ee 993d
00000080: 08fb 89bc ea0a 203e 6bb2 9abd e476 773d
00000090: c0ff a4bc 8ec8 d8bd 297d 963c 9b2c 86bd
000000a0: 3ed2 4b3b 2d29 d1bc b8dd 6e3d 23a7 0d3d
000000b0: 43c7 a8bc 5c60 123d 70a9 8b3c 04a7 94bd
000000c0: e497 c3bc f436 2b3d 6003 08bd 2c7f c03d
000000d0: 1a34 8f3d e552 c23c 7d65 fb3d c000 f63d
000000e0: 02b4 c8b9 12dc b63d 3860 c8bc 12c0 0cbe
000000f0: 0bf5 c2bd 2047 74bd 7dc1 6e3d e6ed 003c
00000100: 7e1f dcbd cef8 e73d 2c07 903d c6d0 db3d
00000110: b42c aa3d 6306 c5bd 676a a0bd de0b c93d
00000120: c808 b9bd dee5 72bd bbc8 8f3c e279 9dbd
00000130: 2dcc c8bc dd44 e5bd a26a 943d 8346 7d3d
00000140: 11a3 fcbd ac5c a6bd b45b 43bd 97aa febc
00000150: e806 8c3c b62d 36bd 5a4a 7bbd 3dd4 0e3e
00000160: 0659 193e 066a fb3d 2421 dd3d 421f fdbd
00000170: d744 56bd 8c2b fabc 0677 a0bd ef16 cebd
00000180: 0a85 d03d 1c04 103d 9a94 20bd e856 683d

weight f4 [50, 100]
-0.09778655 0.09216119 -0.004470902 -0.08753701 -0.023920244 -0.07175788 0.022944227 -0.011666605
0.08202229 -0.021890402 -0.02652552 0.002948463 0.06622187 0.043918435 -0.07387291 -0.0943377
0.044569 0.028484963 -0.06843935 -0.029113054 -0.039078258 -0.044448506 0.067154504 -0.075177476
-0.03488185 -0.09759446 -0.06757353 -0.045920856 0.07739909 -0.04893011 0.009080715 0.00021284114
0.034478355 -0.026683586 0.050299264 0.0685568 0.043069508 -0.026914597 -0.07306909 0.09232337
-0.020617869 0.013356159 -0.023788437 0.054388545 -0.07880333 0.062860034 -0.012918256 0.0019765496
-0.09545318 0.036840506 0.03852544 -0.02157338 -0.052273165 0.05419475 -0.029880077 -0.029509284
-0.060320184 0.059352852 -0.061030746 0.078816906 -0.09332386 -0.08491962 0.105174676 0.05634288
0.026919134 -0.08362113 0.06454457 0.026895843 0.092047356 -0.08575979 0.06255146 0.09205028
-0.033447202 0.018737359 0.009785586 -0.0149553185 0.00071206683 0.0005302653 -0.089313045 0.035206426
0.005359394 0.088710226 -0.014637008 -0.010730452 0.0388544 0.013818577 -0.030643366 0.025725462
-0.035659008 -0.07732844 -0.06689176 -0.0018879217 -0.0433206 -0.07480321 -0.048051912 -0.064799145
-0.052265216 0.058934264 0.013962285 -0.023912013 -0.08350231 0.08063283 0.007800378 0.037561066
-0.0961289 -0.060111105 0.027383395 -0.0127791725 -0.06266822 0.08451078 0.021737488 -0.016861059
-0.012334608 0.0119978115 -0.08592218 -0.017343268 -0.056583263 -0.085759215 0.06479614 0.093052395
0.02111797 -0.0954788 0.04749625 -0.08818221 0.009248879 -0.03313522 0.06562487 0.004086353
-0.0072344993 -0.020711519 -0.0870999 0.01308534 -0.013849303 -0.018825782 0.024421021 -0.041931655
-0.10133227 0.0489564 0.02538807 0.05294726 0.015494126 0.03734292 0.09581577 0.059327554
-0.045706745 -0.032609247 0.07399688 -0.078671284 -0.034220636 -0.0485271 0.026611187 -0.024893567
0.036465667 0.059319448 -0.03202601 -0.04982221 -0.009729102 -0.071543366 -0.010004245 0.019324075
-0.033617202 0.061925814 -0.027425148 0.07408622 0.024053082 0.04924784 -0.058285844 -0.08002827
0.04114047 0.029329835 -0.044789005 0.043454565 0.08855401 -0.06869343 -0.05561353 -0.089034036
-0.008811692 -0.07835027 -0.08841776 0.08812667 -0.009867886 0.03502617 -0.070397936 0.08166387
0.014966653 -0.08258551 -0.095502436 0.022158407 -0.039312035 -0.073369205 -0.081961 -0.02185233
0.073411696 -0.040074494 -0.078848474 -0.060057566 0.07599171 -0.01612766 -0.054891665 0.048671983
-0.02953555 0.051224835 -0.040645037 -0.04636187 0.08481195 0.04163626 -0.04033191 0.083717115
-0.08537688 -0.060038697 -0.09135515 0.050791197 -0.03408716 -0.080778554 0.06662048 -0.08645233
0.098607354 0.07504577 0.021524385 0.041025363 0.025502274 -0.046215136 -0.05003723 0.047350414
-0.06329312 0.093402274 -0.045458555 0.07483027 0.029279642 -0.09788438 -0.01396976 0.07622492
0.088040255 0.016700216 0.021348737 0.032797284 0.08773482 0.056652613 -0.10093817 -0.08834907
0.045174286 -0.040664054 0.06718918 0.049568612 0.00025420514 0.06521753 -0.067190036 0.05988683
0.03174434 -0.046702314 -0.072404936 -0.07707556 0.09431825 -0.015546878 -0.061841752 -0.006117204
00000000: 5144 c8bd 02bf bc3d a580 92bb 9b46 b3bd
00000010: 63f4 c3bc ccf5 92bd 88f5 bb3c 4a25 3fbc
00000020: 4dfb a73d 8053 b3bc 0c4c d9bc 003b 413b
00000030: 559f 873d d1e3 333d ae4a 97bd 2034 c1bd
00000040: fc8d 363d 4c59 e93c ee29 8cbd 807e eebc
00000050: 8610 20bd a30f 36bd 4d88 893d a6f6 99bd
00000060: 45e0 0ebd 9bdf c7bd fe63 8abd 8217 3cbd
00000070: 6a83 9e3d f06a 48bd 47c7 143c 1c2e 5f39
00000080: 2d39 0d3d 8997 dabc 9a06 4e3d 8267 8c3d
00000090: a769 303d 007c dcbc 3fa5 95bd 0914 bd3d
000000a0: cee6 a8bc cbd3 5a3c f8df c2bc 86c6 5e3d
000000b0: a463 a1bd c3bc 803d 18a7 53bc 0089 013b
000000c0: f57c c3bd 12e6 163d dacc 1d3d a8ba b0bc
000000d0: 631c 56bd 50fb 5d3d 10c7 f4bc 74bd f1bc
000000e0: 4c12 77bd fa1b 733d 60fb 79bd c26a a13d
000000f0: 9420 bfbd 56ea adbd d265 d73d cbc7 663d
00000100: 8485 dc3c 8e41 abbd f22f 843d ac54 dc3c
00000110: 5383 bc3d d4a2 afbd fb1a 803d db84 bc3d
00000120: efff 08bd 177f 993c b953 203c 2707 75bc
00000130: ffa9 3a3a 8001 0b3a c2e9 b6bd 9d34 103d
00000140: db9d af3b b5ad b53d 10d0 6fbc c7ce 2fbc
00000150: cb25 1f3d 5067 623c cc07 fbbc 34be d23c
00000160: 2e0f 12bd 605e 9ebd 8cfe 88bd 2474 f7ba
00000170: f170 31bd 6d32 99bd 15d2 44bd 6ab5 84bd
00000180: 0d14 56bd 0e65 713d 11c2 643c 20e3 c3bc
00000190: 4203 abbd d322 a53d 509a ff3b a2d9 193d
000001a0: 3bdf c4bd 1037 76bd 2453 e03c bc5f 51bc
000001b0: 3258 80bd fd13 ad3d d112 b23c 3420 8abc
000001c0: 1817 4abc 7892 443c f8f7 afbd 7813 8ebc
000001d0: dac3 67bd 87a2 afbd d7b3 843d 4192 be3d
000001e0: 98ff ac3c 648a c3bd 6e8b 423d e098 b4bd
000001f0: 9c88 173c ccb8 07bd 5566 863d d0e6 853b
00000200: 610f edbb 34ab a9bc 6f61 b2bd e563 563c
00000210: 30e8 62bc 8738 9abc 980e c83c 87c0 2bbd
00000220: 4b87 cfbd 8286 483d a4fa cf3c 3adf 583d
00000230: 13db 7d3c e4f4 183d 0f3b c43d 7301 733d
00000240: ff36 3bbd 4691 05bd ad8b 973d 691e a1bd
00000250: f02a 0cbd 5ac4 46bd b4ff d93c 98ed cbbc
00000260: 065d 153d f3f8 723d b52d 03bd 6012 4cbd
00000270: d066 1fbc 5485 92bd d8e8 23bc 864d 9e3c
00000280: 31b2 09bd eca5 7d3d b4aa e0bc 84ba 973d
00000290: f80a c53c 1ab8 493d 23bd 6ebd dde5 a3bd
000002a0: e982 283d 1f45 f03c ad74 37bd 6afd 313d
000002b0: ce5b b53d 24af 8cbd 03cb 63bd 7a57 b6bd
000002c0: ea5e 10bc 1b76 a0bd 5f14 b5bd c17b b43d
000002d0: eaac 21bc 9a77 0f3d cb2c 90bd 633f a73d
000002e0: b136 753c 9822 a9bd c896 c3bd 8c85 b53c
000002f0: a805 21bd 9842 96bd 2bdb a7bd a803 b3bc
00000300: df58 963d 2725 24bd 4f7b a1bd ecfe 75bd
00000310: 8ba1 9b3d 281e 84bc 15d6 60bd 465c 473d
00000320: 8af4 f1bc 22d1 513d 697b 26bd f2e5 3dbd
00000330: e3b1 ad3d c88a 2a3d 1333 25bd e173 ab3d
00000340: 13da aebd 23eb 75bd 6918 bbbd 6e0a 503d
00000350: fa9e 0bbd 3a6f a5bd 5170 883d eb0d b1bd
00000360: a7f2 c93d 99b1 993d e853 b03c 360a 283d
00000370: 25ea d03c 154c 3dbd d7f3 4cbd 82f2 413d
00000380: d39f 81bd b149 bf3d c032 3abd 9d40 993d
00000390: dcdb ef3c 9b77 c8bd 6ce1 64bc d01b 9c3d
000003a0: 734e b43d e4ce 883c 8ce3 ae3c 7256 063d
000003b0: 50ae b33d 920c 683d acb8 cebd 5bf0 b4bd
000003c0: ac08 393d 5a8f 26bd 7b9a 893d 7508 4b3d
000003d0: d646 8539 c590 853d ee9a 89bd e54b 753d
000003e0: 5a06 023d ed4a 3fbd 0a49 94bd cbd9 9dbd
000003f0: ed29 c13d 55b8 7ebc c74d 7dbd d472 c8bb

bias f4 [50]
0.06198927 -0.03237232 0.04937096 -0.02885355 -0.022037804 0.004317594 0.08982858 0.070217915
-0.0068882704 -0.05222738 -0.02819608 -0.022016503 -0.025715152 0.028279066 0.08691598 -0.07810812
0.04606221 0.04390264 0.012624517 -0.029918972 -0.09738716 -0.025661305 0.011286631 -0.03358797
-0.043869566 0.020067269 -0.06315725 -0.057222713 -0.019621031 0.04806212 0.0437193 0.03555201
0.06074419 -0.0039989427 0.07108302 0.057420753 -0.03979334 -0.09529239 0.08064648 0.1018657
-0.010415593 0.073242195 0.041987546 -0.09732989 -0.012680056 -0.045221936 -0.12974101 0.00642947
0.067732446 -0.04360333
00000000: 76e8 7d3d d698 04bd 3439 4a3d 485e ecbc
00000010: a088 b4bc 9b7a 8d3b 0cf8 b73d 69ce 8f3d
00000020: 00b7 e1bb 61ec 55bd 77fb e6bc f45b b4bc
00000030: 95a8 d2bc 80a9 e73c 0101 b23d 26f7 9fbd
00000040: baab 3c3d 41d3 333d 10d7 4e3c a218 f5bc
00000050: eb72 c7bd a837 d2bc 90eb 383c 8a93 09bd
00000060: 93b0 33bd 1d64 a43c 9758 81bd 5d62 6abd
00000070: 49bc a0bc c9dc 443d 0213 333d fc9e 113d
00000080: e6ce 783d 9009 83bb f993 913d 0632 6b3d
00000090: 57fe 22bd a828 c3bd fb29 a53d f79e d03d
000000a0: 2aa6 2abc 0100 963d 22fb 2b3d e554 c7bd
000000b0: 02c0 4fbc a33a 39bd d4da 04be 4eae d23b
000000c0: 4fb7 8a3d 6899 32bd

weight f4 [1, 50]
0.028351476 0.13195474 0.031062394 -0.114693366 0.087213606 -0.046513703 0.10339596 0.06811727
0.12967636 -0.07708189 -0.124413624 -0.12135811 0.038724348 -0.06437764 0.09964582 0.047841717
-0.019582331 0.120616205 0.008657873 -0.102693535 0.1327496 0.11507864 0.018872112 0.12822165
-0.017423047 -0.08402706 0.109334715 -0.08337756 -0.0237943 -0.13158199 0.119720295 -0.13000497
0.033602305 0.007423167 -0.0032536238 0.011049256 0.045374945 -0.09149636 0.0062308162 0.018752452
0.058489364 0.024600506 0.07009208 0.09731954 0.118470125 -0.0781982 -0.06207417 0.045895237
-0.0637917 -0.06318963
00000000: 5b41 e83c 251f 073e 9076 fe3c 5be4 eabd
00000010: 0c9d b23d 2785 3ebd 43c1 d33d 1181 8b3d
00000020: e1c9 043e 1cdd 9dbd 92cc febd 9a8a f8bd
00000030: 6c9d 1e3d 6dd8 83bd 1c13 cc3d adf5 433d
00000040: 206b a0bc a105 f73d c0d9 0d3c fd50 d2bd
00000050: 83ef 073e 5aae eb3d b099 9a3c 894c 033e
00000060: c7ba 8ebc 6116 acbd e1ea df3d dbc1 aabd
00000070: 44ec c2bc 6ebd 06be ea2f f53d 0620 05be
00000080: 92a2 093d 0a3e f33b c03a 55bb f007 353c
00000090: 14db 393d 7262 bbbd e02b cc3b be9e 993c
000000a0: 8b92 6f3d 0087 c93c 708c 8f3d 784f c73d
000000b0: 77a0 f23d 6126 a0bd 7c41 7ebd a5fc 3b3d
000000c0: 39a5 82bd 9169 81bd
