experiments/tabular/compas/models/model_nnC.pkl (torch, 5639 bytes, 9 tensors)

weight f4 [10, 7]
000000 ad 95 a2 be 50 e7 be 3e c0 f9 87 3f 30 d0 10 3f
       -0.3175482 0.37285852 1.0623093 0.5656767
000010 ef f5 99 bd 13 50 f3 3a a8 19 77 3d 53 92 44 3f
       -0.07517611 0.0018563293 0.060327202 0.76785773
000020 30 44 de bd 48 40 52 bf 8d 8d 0f bf 85 17 f4 3d
       -0.108528495 -0.82129335 -0.56075364 0.119185485
000030 e9 34 ec 3d b1 56 54 be 70 e5 00 3f f4 a6 08 bb
       0.11533529 -0.20736195 0.50350094 -0.0020851465
000040 c2 ce 02 bf 04 5b d5 be a2 3a e8 bd 7c c2 b0 3d
       -0.5109674 -0.41671002 -0.11339308 0.08630845
000050 81 d1 7d bd 66 79 1e 3f 43 7d 96 be 7b ba b9 3b
       -0.061967377 0.6190399 -0.29392442 0.005667982
000060 f1 f2 30 bf 6c 02 a6 3d 49 12 65 be c5 1b aa be
       -0.691207 0.08105931 -0.22370256 -0.3322431
000070 70 3c c5 bc f2 6c 00 3e 3e 8c b1 be 20 d7 df 3c
       -0.02407667 0.1254156 -0.3467731 0.02732426
000080 e8 83 11 be 70 89 5c bd 62 97 2c be 5c 2d 23 3f
       -0.14210474 -0.053842008 -0.16854623 0.6374109
000090 18 9c ca 3e 13 34 81 bf e5 bb 42 bf 18 b9 95 3e
       0.39572215 -1.0094017 -0.76067954 0.29242778
0000a0 5b 91 5e 3b 23 c4 c4 bd 1e db 0b 3f 77 aa c2 be
       0.003396115 -0.096077226 0.5463122 -0.3802068
0000b0 98 10 5b 3c db a4 81 be 87 5e b4 3d 2a 5d ed 3e
       0.0133706555 -0.25321087 0.08807092 0.4636014
0000c0 1e c0 54 3d 15 ee 82 bf a0 e3 a6 3e 1b 88 f3 3e
       0.05194103 -1.0228907 0.3259554 0.47564778
0000d0 01 38 1f 3f 4a f3 61 3e 3a 92 a6 3d cb 03 aa 3e
       0.6219483 0.22065464 0.08133359 0.3320602
0000e0 c5 b0 15 bf 17 d5 c5 3d 89 d3 3b 3f 62 8c 38 3e
       -0.58472854 0.09659784 0.7336965 0.18022302
0000f0 41 1f ae 3e 2c af 89 3e a7 b4 6d 3e e7 43 75 3f
       0.3400822 0.26891458 0.23213445 0.95806736
000100 f1 d0 82 3c 6c 7a 32 bf bf fa 45 bf 04 4b 66 bd
       0.015968772 -0.6971805 -0.77335733 -0.056223884
000110 f9 25 4e 3e 7e 79 ce 3e
       0.20131673 0.40327066

bias f4 [10]
000000 e9 0b 5a 3e 44 75 ed 3e ab 36 b6 3e fd 79 76 3e
       0.21293606 0.4637853 0.35588583 0.24069972
000010 56 f0 19 be e0 da 09 3f fe 5a 1f 3e 43 e8 8f 3e
       -0.15033087 0.538496 0.15562055 0.2810689
000020 ee c5 1d bc 29 da c4 3d
       -0.00962971 0.09611923

weight f4 [10, 10]
000000 aa 02 33 bd 7a f0 22 3e b0 46 a2 be ab 15 8e be
       -0.043703713 0.15912047 -0.31694555 -0.27750906
000010 78 10 6d bd ca f8 b3 be 93 8f b0 3c 02 03 85 be
       -0.057877034 -0.35150748 0.021552837 -0.25978857
000020 56 82 96 be 8a 06 23 be 00 fd 97 be 73 b1 a1 3e
       -0.29396313 -0.15920463 -0.2968521 0.31580696
000030 df e2 05 3f 40 f1 7e 3e 7c ee 80 3d 91 a1 a0 3e
       0.522993 0.24896717 0.06295487 0.31373265
000040 44 5a 52 3e 1b 54 56 be 76 20 5b be f3 62 1a 3f
       0.20542246 -0.20930521 -0.21399102 0.60307235
000050 99 56 91 be 7d f4 00 be 75 21 8f 3e 38 e0 a9 bd
       -0.2838638 -0.12593265 0.27955213 -0.082947195
000060 1e e3 4c 3e 18 5a 81 be 38 a1 90 3d 20 78 17 bc
       0.20008513 -0.2526405 0.07062 -0.009244949
000070 79 12 98 be 78 24 91 3d b8 5c 09 bd e2 25 9d be
       -0.29701594 0.07087034 -0.03353569 -0.30692965
000080 78 7f c9 bd fd 64 85 3e 00 ed 81 3d 51 bd 45 be
       -0.09838766 0.2605361 0.06344032 -0.193105
000090 36 1d 27 be c9 bf 13 be b4 ce 27 be 98 e6 73 3d
       -0.16319737 -0.14428629 -0.16387445 0.059546083
0000a0 e4 d8 16 bd c1 83 01 3f 58 5c ee 3e 44 ec 00 3f
       -0.036827937 0.50591666 0.46554828 0.5036051
0000b0 80 80 b8 3b 54 2c 1a 3f 46 92 2f be 03 e9 2c be
       0.005630553 0.6022389 -0.17145643 -0.16885762
0000c0 73 dc 7a be 06 ae 0e 3f 70 85 a0 be 3a 1f 27 be
       -0.24498157 0.5573429 -0.31351805 -0.16320506
0000d0 9b d2 e6 3d cf ac 90 3e d6 b6 52 3e 1e 6e f0 3d
       0.112706386 0.28256842 0.20577559 0.11739753
0000e0 3b b2 64 be 66 35 a9 3d f2 96 03 be 20 16 96 3c
       -0.22333615 0.08262138 -0.1285055 0.018321097
0000f0 48 2d 78 bd 58 ac 54 3e b8 c9 a0 3d da 91 65 bd
       -0.06059006 0.20768869 0.07850975 -0.056047298
000100 18 6e 9d be b5 67 2f 3e d4 66 c5 3d 01 66 8d 3d
       -0.30748057 0.17129405 0.096387535 0.06904221
000110 af 15 bd be 99 96 af be a3 a9 dc 3e f8 e6 f0 be
       -0.36930606 -0.34294584 0.43098173 -0.47051215
000120 77 6d 2e 3b 21 ef 97 bd 47 fa 93 3e 9a e0 d6 3d
       0.002661554 -0.07418657 0.28901884 0.10492058
000130 f5 20 c9 3e c7 ba df 3e a3 cf 6d 3e 99 8a e4 be
       0.39282957 0.43697187 0.23223738 -0.44636992
000140 75 fd 9c be 6c 1b 85 bd b5 b9 f0 bb a3 91 f9 bd
       -0.30662122 -0.06499371 -0.0073463568 -0.12185981
000150 f4 e1 b2 3d a2 d5 51 3e 2d 6c 4e 3c 7f 30 0d be
       0.087345034 0.2049165 0.012599033 -0.13788031
000160 77 5e 93 be 54 19 36 be 3c 79 c7 3d d4 c6 96 be
       -0.28783008 -0.177831 0.097399205 -0.2944857
000170 54 de a0 be 70 bf 8c 3c 60 ad 04 3c ea 97 7e be
       -0.31419623 0.017181128 0.008097976 -0.24862638
000180 b8 ea 98 3d c6 a4 0d 3e bc 0b 7c be 68 52 40 bd
       0.07466644 0.13832387 -0.24613851 -0.04695359

bias f4 [10]
000000 eb 19 19 3e b4 5e be 3e 9c 7a 62 be fb 09 2e be
       0.14951293 0.37181628 -0.22117084 -0.16995995
000010 b8 9d 72 b8 f5 86 32 be a2 90 8d be 52 7e a4 3e
       -5.7844183e-05 -0.17434295 -0.2764941 0.32127625
000020 f7 31 01 bd 26 49 76 be
       -0.03154179 -0.24051341

weight f4 [10, 10]
000000 6c 76 65 be 70 85 c4 be 8d 27 98 be 80 c4 95 3c
       -0.22408456 -0.38383055 -0.29717675 0.018282175
000010 65 c7 16 be 62 1a 3a 3e bd fb 85 3e 30 10 f3 3e
       -0.147245 0.18174127 0.26168624 0.47473288
000020 31 e6 8c 3e 60 68 fb bd 7a d2 73 be d0 23 ef bc
       0.27519372 -0.12275767 -0.23810759 -0.029191881
000030 fe 72 8b bd 00 2d 76 bc 80 12 f8 3b 5e 29 36 be
       -0.068090424 -0.015025377 0.0075705647 -0.17789218
000040 83 3b 8a be c0 33 05 be 80 50 73 3d 26 dc 25 3e
       -0.2699853 -0.13008022 0.059402943 0.16197261
000050 0f 34 91 be 36 6a 91 be 00 48 94 bc b0 38 f8 bd
       -0.2836003 -0.28401345 -0.018100739 -0.12120187
000060 65 fb 03 be ba 94 9c be e0 73 11 3e 90 19 5a bd
       -0.12888868 -0.3058222 0.14204359 -0.053247035
000070 5e 6a 7f 3e 30 f3 4f be fd c0 82 be 44 75 a0 3e
       0.2494292 -0.20307612 -0.25537863 0.31339467
000080 c4 c4 99 3d 1a c1 3c 3e 35 ab d4 3e 18 32 6b 3e
       0.07508233 0.18433037 0.4153687 0.22968328
000090 82 10 e2 bd 04 b7 d8 be a0 c0 15 be 88 60 01 be
       -0.11038305 -0.4232713 -0.14624262 -0.1263448
0000a0 04 00 13 3e 11 12 0d 3f 71 19 98 3e 14 0e 1a be
       0.14355475 0.5510569 0.2970691 -0.15044433
0000b0 17 86 ba 3e 1c f2 83 bd 90 9b 2f 3e f7 33 b4 be
       0.36430427 -0.06442663 0.17149186 -0.35195896
0000c0 32 3f d2 bd c8 f5 60 3d ec c7 2e be 24 ff 12 3f
       -0.1026596 0.054921895 -0.17068452 0.57420564
0000d0 e8 c9 8c be 88 09 8f be 6c 0c dc 3e 16 2f 72 be
       -0.27497792 -0.2793696 0.42978227 -0.23650774
0000e0 58 c5 a9 bd 34 db f8 bd 08 12 22 3c 10 1d 13 bd
       -0.082895935 -0.12151185 0.009891994 -0.035916388
0000f0 8b 4c 96 be a0 98 fe bd 62 49 d8 bd b2 9d 6e 3e
       -0.29355273 -0.12431455 -0.10560872 0.23302343
000100 36 65 b1 3c 60 5e ed bc 87 19 8c 3e eb 67 0a 3f
       0.021654706 -0.028975666 0.27363226 0.54064816
000110 d8 74 a0 bd 86 b8 d8 bd 1c 5f 93 3e 61 5f 65 be
       -0.07834786 -0.1058207 0.287835 -0.22399665
000120 08 57 99 3d 26 25 53 3e 8e e2 a6 3b 76 4b 36 be
       0.07487303 0.2061964 0.0050929254 -0.17802224
000130 53 fb 35 3d 97 ae f6 3e 5d b9 63 3e 19 f4 19 be
       0.044429135 0.48180076 0.22238679 -0.15034522
000140 ac fd 89 be a0 50 64 be 3e 95 6c 3e a0 72 39 3e
       -0.2695135 -0.22296381 0.23103806 0.18110132
000150 60 ff ff 3d 37 ba 57 be d0 b1 87 be 70 12 cb 3c
       0.12499881 -0.21067129 -0.26502848 0.024789065
000160 12 5d 07 be b7 37 8f be 07 34 8a be 80 0e bd bd
       -0.13219097 -0.27972195 -0.2699282 -0.09231281
000170 08 e1 7d bd 42 b4 76 be 0e bb f6 bd 06 bc d2 bd
       -0.061982185 -0.240922 -0.120473966 -0.10289769
000180 03 62 90 3e 08 7d 11 be f8 c4 8e bd 11 cd 86 3e
       0.28199777 -0.14207852 -0.069711626 0.26328328

bias f4 [10]
000000 22 76 33 bb 80 af af bc 5c b0 18 be ee e9 8d 3e
       -0.0027383645 -0.02144599 -0.14911026 0.27717537
000010 9a 9e 7a 3e 9a 3a 89 3d f4 6a df 3d dd 03 b7 3e
       0.24474564 0.067006305 0.109090716 0.35745135
000020 2e 65 1a be fa 52 84 be
       -0.1507766 -0.25844556

weight f4 [10, 10]
000000 2c 8a 4b 3f 76 e0 69 3e da fb d7 bd 0e 86 c1 bd
       0.7950771 0.22839531 -0.10546084 -0.09449397
000010 88 38 39 be 5f 1d 81 bb 71 ac 02 3f 2e d5 5e 3f
       -0.18087971 -0.003940269 0.51044375 0.87044036
000020 a2 25 61 3e 50 6e cb bc 40 76 df 3b 6d 64 99 3e
       0.21987012 -0.024832875 0.0068195164 0.2995943
000030 76 df 14 3e 5d 63 9d be 90 ba 63 bd 58 66 bb bd
       0.14538369 -0.3073987 -0.05559784 -0.0915038
000040 e4 80 9f bd 80 67 02 bc 18 17 c9 bd 7c b4 2e 3e
       -0.07788256 -0.007959247 -0.09818858 0.17061037
000050 65 da bc be 72 4a 6c 3e 20 f3 14 3d 78 61 10 3f
       -0.36885372 0.23075274 0.036364675 0.56398726
000060 76 74 b6 3e 69 68 d8 3e 6a dc cc be c0 0c c6 bd
       0.35635728 0.4226716 -0.40011913 -0.096704006
000070 48 da 81 3d fa 45 54 3e bf 70 97 3e 47 e7 95 3e
       0.06340462 0.20729819 0.29578206 0.29278013
000080 82 a9 21 3e 70 23 b8 3d 33 64 cb bd 0d b7 ad 3d
       0.15787318 0.08991134 -0.09931221 0.0848218
000090 a8 dc 4d 3d 75 1e b5 be 20 32 82 bd 4f 01 10 be
       0.050259262 -0.353748 -0.06357217 -0.14062999
0000a0 3f d9 26 3f 50 aa b2 bd f8 ff 43 be bb 95 3e be
       0.6517524 -0.08723891 -0.19140613 -0.18611805
0000b0 3b 87 5d be 38 c5 1d 3e bb f7 06 3f 33 b3 16 3f
       -0.21633618 0.15407264 0.52721757 0.58867186
0000c0 3f a1 1c be 98 42 a3 3d ea f4 ca be 18 d4 27 3d
       -0.15295886 0.07971686 -0.3963998 0.040973753
0000d0 24 bc 74 be fb 8f 23 3f 73 cd d4 3d 1f 7f 02 3f
       -0.23899895 0.6389157 0.10390749 0.5097522
0000e0 42 6b dd bc 05 dd 16 be 8e 04 99 be 6b cc 93 3e
       -0.027028684 -0.1473275 -0.29886287 0.28866896
0000f0 39 17 0f bd 6c 50 dc 3d 68 0a 7e bd 7f 61 90 3e
       -0.034934256 0.10757527 -0.062021643 0.28199384
000100 4f 43 c3 3e d0 e4 26 3e 91 c5 28 be 94 05 50 be
       0.3813729 0.16298223 -0.16481616 -0.20314628
000110 6e ba 61 3e 40 84 93 3d cb e8 a9 3e f2 b0 35 3e
       0.22043774 0.07202959 0.3318542 0.1774328
000120 fe 06 42 3e 0a 95 bb bd b6 dc 30 be be ce 0e bd
       0.1894798 -0.09159286 -0.17271695 -0.034865133
000130 35 fb 8d 3e e9 d8 ed 3e a4 20 8c 3d 00 f9 c5 3a
       0.27730718 0.46454552 0.06842163 0.0015104115
000140 bb fe ca 3c 74 22 ab bd 90 08 ef bd d2 1a c4 3e
       0.024779668 -0.08356181 -0.11671555 0.38301712
000150 85 1a 22 3c f8 49 b8 3e bc 50 4e be 33 14 ef 3d
       0.009894018 0.35993934 -0.20147985 0.116737746
000160 be 4e 85 be 38 c8 d2 3d a9 5c f8 bd 62 60 68 3e
       -0.26036638 0.10292095 -0.121270485 0.22693017
000170 d9 45 78 be ba f2 2d 3f 36 b7 12 3f eb 53 b7 3e
       -0.24245395 0.67948496 0.5731081 0.35806212
000180 87 e9 92 3e a5 71 de be 60 1c 49 bc 55 b4 83 be
       0.28693792 -0.4344608 -0.0122748315 -0.2572352

bias f4 [10]
000000 fe 8f 07 3f 80 62 0c bd 5d 67 01 3e fd 9e 12 be
       0.5295409 -0.034273624 0.12637086 -0.14318462
000010 64 d4 e7 3e a9 15 18 3e 5e a5 f2 bd 84 52 11 3f
       0.4527923 0.14852013 -0.118479475 0.56766534
000020 14 18 77 be ee 06 53 3d
       -0.24130279 0.05152028

weight f4 [1, 10]
000000 6f 49 fa be d0 33 c3 bd b5 96 f5 3e 07 6f f4 bd
       -0.4888415 -0.09531367 0.47966543 -0.11935239
000010 eb f8 a7 be b3 bd 0b 3e dd e2 b4 3e 25 89 aa be
       -0.32807097 0.13646583 0.35329333 -0.33307758
000020 55 b7 de 3e 09 bb 1d 3f
       0.43499246 0.6161352
